MDOF_linear_bridge2/DL_data/DNN_accel_wotime_gm.pt (torch, 67187 bytes, 59 tensors)

bn1.weight f4 [14]
0.060158532 0.046698034 2.4086848e-05 0.05887587 0.056546446 0.0489373 0.01699313 0.038945187
-0.003222406 0.0077777714 0.054489065 7.1775175e-06 0.03006667 0.1296017
00000000: cb68 763d 7046 3f3d 1d0e ca37 d327 713d
00000010: 3f9d 673d 7a72 483d 2d35 8b3c fd84 1f3d
00000020: 002f 53bb addc fe3b ed2f 5f3d 68d6 f036
00000030: 614e f63c 4fb6 043e

bn1.bias f4 [14]
-0.00261924 -0.0015831238 -9.348814e-06 0.001191115 -0.0017551138 0.0009239737 -0.0006572237 -0.0004449254
-0.0021400023 0.0056161582 -0.0037000391 3.8415387e-06 -0.0014978751 -0.0045212815
00000000: 8ea7 2bbb d280 cfba dad8 1cb7 301f 9c3a
00000010: d90b e6ba d336 723a 8949 2cba e044 e9b9
00000020: 483f 0cbb c007 b83b 5b7c 72bb 91e6 8036
00000030: 5954 c4ba 4227 94bb

bn1.running_mean f4 [14]
-0.7522769 -1.356224 -1.9288633 -2.3273218 -0.67441446 -0.84564286 -8.336811 -3.4062638
-4.0695343 -4.0695343 -3.7725203 -3.4618447 4.79161 0.51485276
00000000: 3895 40bf bf98 adbf fee4 f6bf d7f2 14c0
00000010: 6da6 2cbf 0d7c 58bf 9463 05c1 3a00 5ac0
00000020: a039 82c0 a039 82c0 f970 71c0 dd8e 5dc0
00000030: de54 9940 64cd 033f

bn1.running_var f4 [14]
0.24854851 0.11315242 0.12071214 0.14455834 0.0044829682 0.005016967 5.1423144 0.11243654
0.66732216 0.66732216 0.68069893 0.70607775 1.1640197 0.080724254
00000000: 8083 7e3e 75bc e73d ed37 f73d 1a07 143e
00000010: dde5 923b 5f65 a43b d78d a440 2145 e63d
00000020: a0d5 2a3f a0d5 2a3f 4942 2e3f 83c1 343f
00000030: 99fe 943f c252 a53d

fc1_1.weight f4 [16, 14]
-1.757967e-36 -1.5385486e-36 -6.552851e-39 1.1668146e-36 -5.0376743e-37 -2.2546631e-36 -2.3389233e-36 3.3396158e-36
6.179843e-37 1.6820694e-37 2.1767647e-36 -1.1405867e-37 1.6010116e-36 -1.2102851e-36 -4.75836e-40 2.9196e-40
7.06284e-40 2.67818e-40 1.38352e-40 -5.4581e-40 1.43134e-40 1.259022e-39 1.56096e-40 -1.3104e-39
-1.73747e-40 1.057402e-39 -5.79877e-40 2.48893e-40 -6.181536e-13 -4.3149894e-13 1.9736852e-15 3.2840446e-13
4.821906e-13 -1.3214504e-13 -5.4720714e-14 -4.516462e-13 2.6536274e-13 1.133402e-13 1.1764274e-13 -5.8197315e-16
3.5742644e-13 2.6195905e-13 -4.16841e-40 3.19598e-40 7.19481e-40 7.7613e-40 -1.225063e-39 -7.60909e-40
1.174709e-39 -8.294e-42 5.75103e-40 5.44018e-40 4.206e-40 -2.22924e-40 1.6719e-40 3.40964e-40
-1.3886032e-26 -6.746833e-26 -2.8085343e-28 2.382258e-26 4.4747824e-26 -2.924423e-26 -1.7614204e-26 4.798886e-28
3.5721816e-26 3.603988e-27 -5.4941826e-26 -5.474729e-29 8.402877e-27 9.3298595e-27 -0.039813135 0.0560898
5.311002e-06 0.05114578 -0.06501904 -0.049676653 0.0026902528 -0.04336688 0.0009237012 -0.0011610549
-0.0035548753 -9.20679e-06 -0.029685672 -0.051144887 0.006083729 -0.037191115 -1.6691012e-05 -0.009035914
-0.0190107 -0.0070201457 -0.0098504 -0.0076211467 0.0056872983 -0.014909613 0.016825097 -7.1704126e-06
0.01167943 -0.13249803 6.000848e-16 -1.6414747e-15 -1.6719353e-17 1.829411e-15 2.0892864e-15 -3.801509e-15
-2.0119338e-16 2.1819488e-15 -2.829551e-16 2.6430827e-16 7.873654e-16 2.9392359e-19 1.1808024e-15 -9.310753e-16
4.66348e-40 -2.70055e-40 5.10375e-40 1.7013e-41 -8.722e-42 -1.46105e-40 4.54891e-40 -1.77585e-40
-1.78063e-40 3.1993e-40 -1.84419e-40 1.149652e-39 3.0462e-40 -6.5633e-41 7.4716965e-19 2.0840809e-23
5.1247084e-36 -2.0760395e-20 2.853901e-34 -4.0442837e-34 -3.044643e-35 1.216564e-33 -6.447759e-34 2.6404805e-33
2.9690765e-29 4.3718306e-37 1.2742535e-33 -5.974403e-13 0.08070528 0.003490278 1.0081372e-05 0.060833745
-0.025169905 -0.051762342 -0.028368078 -0.043393053 0.0014757913 -0.0038511816 -0.028555918 -4.5950696e-07
-0.017959088 -0.020218639 -6.22528e-40 3.15312e-40 6.75464e-40 4.7555e-40 -3.19568e-40 9.05724e-40
-1.85791e-40 8.93476e-40 3.10047e-40 1.241419e-39 1.79588e-40 4.67445e-40 -5.38998e-40 -5.39668e-40
9.6294e-41 -3.3641e-41 2.75072e-40 -4.04925e-40 -8.27842e-40 -5.373e-40 -7.75795e-40 4.36436e-40
-1.15093e-40 -1.277571e-39 -7.5386e-41 -2.70032e-40 1.070738e-39 -2.6475e-41 -0.012306942 -0.0042250324
7.5297256e-05 0.005589834 -0.039775006 -0.000983023 -0.022623701 0.00015639362 -0.008866678 0.024637507
-0.080869116 9.086498e-06 -0.039314225 0.002965257 1.156472e-39 5.61566e-40 -7.08885e-40 -4.40459e-40
-1.59501e-40 2.85222e-40 -1.264605e-39 -5.34071e-40 -5.81121e-40 1.350762e-39 2.56087e-40 -1.4257e-41
7.52926e-40 -9.12809e-40 -3.009644e-39 2.621256e-39 -2.0514948e-38 2.940172e-39 6.132772e-39 6.238484e-39
-1.5859627e-38 -2.38387e-40 -4.1156377e-38 -4.4315728e-38 9.52656e-40 6.8855384e-38 -2.604533e-39 -4.015502e-39
00000000: 228d 1584 9fe2 0284 af5a 4780 f285 c603
00000010: 556c 2b83 37ce 3f84 3df9 4684 320d 8e04
00000020: 064a 5203 90f3 6402 bd2d 3904 a53f 1b82
00000030: f232 0804 5aeb cd83 702e 0580 de2d 0300
00000040: d5b0 0700 91ea 0200 ab81 0100 7ff1 0580
00000050: 008f 0100 a4b5 0d00 22b3 0100 dd44 0e80
00000060: 56e4 0180 9b83 0b00 7650 0680 d0b5 0200
00000070: a9fe 2dab 8de9 f2aa 1138 0e27 12e0 b82a
00000080: 7fb9 072b 37c8 14aa b070 76a9 1441 feaa
00000090: cd62 952a 2d38 ff29 3674 042a 0abe 27a6
000000a0: 9436 c92a 4778 932a fc89 0480 e97a 0300
000000b0: 9fd5 0700 8973 0800 fa56 0d80 1b49 0880
000000c0: 9cca 0c00 1f17 0080 2743 0600 80ec 0500
000000d0: 7694 0400 6c6d 0280 0fd2 0100 78b6 0300
000000e0: 4685 8994 220b a795 1303 b291 6aed eb14
000000f0: 9b94 5d15 77cf 1095 5071 ae94 3015 1812
00000100: c8e2 3015 c8c4 8e13 8507 8895 06cd 8a90
00000110: a66f 2614 02cc 3814 1913 23bd 6bbe 653d
00000120: 2935 b236 3d7e 513d b428 85bd bf79 4bbd
00000130: f44e 303b 78a1 31bd 8a24 723a 8a2e 98ba
00000140: e9f8 68bb dd76 1ab7 5e2f f3bc 4d7d 51bd
00000150: 055a c73b b655 18bd ad03 8cb7 5f0b 14bc
00000160: 54bc 9bbc 4009 e6bb 9263 21bc d0ba f9bb
00000170: 845c ba3b 7347 74bc c9d4 893c 6099 f0b6
00000180: 145b 3f3c 90ad 07be 71f6 2c26 ba8f eca6
00000190: 7535 9aa3 add2 0327 888c 1627 bbf6 88a7
000001a0: cef5 67a5 da39 1d27 cd1c a3a5 045d 9825
000001b0: 50f1 6226 7a80 ad20 eb2b aa26 9e2e 86a6
000001c0: fd13 0500 cef0 0280 b88e 0500 6d2f 0000
000001d0: 5018 0080 4897 0180 0df4 0400 09ef 0180
000001e0: 5ef0 0180 d67b 0300 1602 0280 c384 0c00
000001f0: 2851 0300 f5b6 0080 8b86 5c21 588f c919
00000200: 22fb d904 8e13 c49e 9cac bd07 f664 0688
00000210: 88e1 2186 e922 ca08 7843 5688 cf5c 5b09
00000220: d18c 1610 04c4 1403 c0b8 d308 1c2a 28ab
00000230: cf48 a53d 26bd 643b 2a23 2937 ce2c 793d
00000240: 1e31 cebc c004 54bd 2c64 e8bc eabc 31bd
00000250: 576f c13a 1b64 7cbb 1aee e9bc 28b2 f6b4
00000260: f01e 93bc 8fa1 a5bc 5bc7 0680 f66e 0300
00000270: eb5a 0700 a42d 0500 d37a 0380 cadc 0900
00000280: e905 0280 a6ba 0900 4960 0300 9284 0d00
00000290: 9ef4 0100 0c17 0500 82de 0580 60e0 0580
000002a0: 6e0c 0100 c75d 0080 cafe 0200 c468 0480
000002b0: b003 0980 c6d9 0580 9a72 0880 9bc0 0400
000002c0: d540 0180 59e9 0d80 25d2 0080 bdf0 0280
000002d0: c8a8 0b00 cd49 0080 0ea3 49bc 2472 8abb
000002e0: e8e8 9d38 ed2a b73b 1eeb 22bd c7d8 80ba
000002f0: 5755 b9bc 98fd 2339 8b45 11bc 99d4 c93c
00000300: b59e a5bd 3672 1837 f407 21bd c254 423b
00000310: c697 0c00 6b1d 0600 15b8 0780 d2cb 0480
00000320: a0bc 0180 151b 0300 34c5 0d80 c6d0 0580
00000330: ee53 0680 60b5 0e00 dec9 0200 be27 0080
00000340: da32 0800 8af0 0980 aac5 2080 ff8a 1c00
00000350: 5463 df80 0104 2000 acc7 4200 5bee 4300
00000360: 30b2 ac80 8798 0280 9e13 6081 1c47 7181
00000370: 9e5f 0a00 3371 bb01 615c 1c80 96b9 2b80

fc1_1.bias f4 [16]
-6.117223e-36 -5.16118e-40 2.4992801e-11 -9.2016e-40 1.0966707e-25 0.019974004 0.0071887076 -1.5045907e-14
-4.96987e-40 -2.622206e-27 0.021904256 -9.12041e-40 -4.62539e-40 0.015811056 -1.304885e-39 4.69764e-40
00000000: 5419 0285 ba9e 0580 c9d6 db2d 0805 0a80
00000010: e2c2 0716 86a0 a33c 408f eb3b 8085 87a8
00000020: 6669 0580 a8c0 4f93 8e70 b33c 66ee 0980
00000030: 5f09 0580 3086 813c 7d35 0e80 831d 0500

bn2.weight f4 [16]
-1.0935862e-35 2.85153e-40 5.757808e-07 -2.46187e-40 2.7400442e-13 0.07769159 0.10114029 -4.174923e-15
1.59913e-40 2.3999676e-23 0.07030121 -2.82279e-40 -6.22235e-40 0.046199627 -1.205862e-39 -9.2473e-41
00000000: 7f94 6885 e41a 0300 5b8f 1a35 45ae 0280
00000010: 3340 9a2a c51c 9f3d a422 cf3d de6a 96a7
00000020: c6bd 0100 521c e819 15fa 8f3d e112 0380
00000030: 8ac6 0680 d23b 3d3d 7421 0d80 c701 0180

bn2.bias f4 [16]
0.00065928267 -0.032963783 1.402493e-08 4.31869e-10 2.9473638e-15 -0.0030032564 -0.0016610674 7.46505e-05
-9.203088e-05 -1.6063212e-12 -0.0049942285 -2.484858e-18 0.0009355095 -0.0018633596 0.00018798056 -1.37432e-20
00000000: b6d3 2c3a 0805 07bd 4bf2 7032 296c ed2f
00000010: 4461 5427 48d2 44bb 2cb8 d9ba af8d 9c38
00000020: b400 c1b8 d211 e2ab a0a6 a3bb a459 37a2
00000030: fb3c 753a f93b f4ba a61c 4539 05cd 819e

bn2.running_mean f4 [16]
9.372308e-37 6e-45 3.2532217e-11 6e-45 2.148452e-25 0.02006895 0.012828336 3.597076e-15
6e-45 4.1023876e-14 0.022963515 6e-45 6e-45 0.016581226 6e-45 6.29849e-40
00000000: 2976 9f03 0400 0000 0514 0f2e 0400 0000
00000010: 95fb 8416 a367 a43c f12d 523c 2c99 8127
00000020: 0400 0000 4fc1 3829 fb1d bc3c 0400 0000
00000030: 0400 0000 5ad5 873c 0400 0000 c3db 0600

bn2.running_var f4 [16]
6e-45 6e-45 1.3981017e-26 6e-45 6e-45 6.2582934e-05 0.00014600864 2.6549295e-31
6e-45 2.156083e-27 6.106201e-05 6e-45 6e-45 2.8676877e-05 6e-45 6e-45
00000000: 0400 0000 0400 0000 1776 8a14 0400 0000
00000010: 0400 0000 f53e 8338 e519 1939 9550 ac0c
00000020: 0400 0000 8fd2 2a13 6b0e 8038 0400 0000
00000030: 0400 0000 208f f037 0400 0000 0400 0000

fc1_2.weight f4 [16, 16]
5.9696293e-07 -4.3031032e-05 9.371078e-12 2.7147711e-12 -4.620892e-18 -0.022037476 0.07812851 1.3877027e-05
8.156995e-09 -6.6932632e-15 0.0016526436 2.735275e-20 1.5548132e-05 -0.013161812 -3.1531163e-06 4.3455487e-22
1.2969756e-06 5.1865305e-14 -3.2637806e-15 4.7802973e-07 1.270542e-09 1.253346e-38 6.564151e-39 -4.1640324e-06
-1.7550296e-17 4.441441e-39 1.297053e-38 2.2126921e-10 1.9817325e-17 -3.0672338e-38 1.0148061e-16 -3.6598e-15
0.00024038088 0.008536545 3.499799e-09 2.9250838e-11 6.907684e-16 -0.011688562 0.008391605 0.00081667857
-4.1083233e-05 -5.711134e-13 -0.09063673 -1.3984353e-19 0.0004095683 -0.005739911 4.7713358e-05 2.6615494e-20
2.9716433e-37 -9.366406e-12 1.5537235e-10 1.5070686e-12 3.3091449e-06 -1.0926894e-30 -1.9078984e-31 3.099462e-09
-3.52865e-40 -3.9319845e-14 -8.535609e-31 -1.195095e-39 5.579207e-37 1.4886201e-30 -2.1251588e-36 2.4102978e-06
2.7284464e-38 2.974661e-07 -9.66956e-40 -9.17346e-40 -4.504011e-08 3.7821072e-37 2.9902768e-37 2.4637e-40
1.542915e-16 2.5868298e-38 -1.0852158e-37 6.640042e-17 4.154721e-05 -8.8254265e-38 2.91038e-40 2.0582219e-13
4.35648e-40 -7.16574e-40 -7.22284e-40 9.54922e-40 -3.9354e-40 3.1681e-40 1.20048e-40 -1.012539e-39
3.06786e-40 -1.29585e-40 2.38654e-40 5.3607e-40 -8.5846e-40 1.177185e-39 -7.44318e-40 1.152803e-39
4.07596e-40 -8.43939e-40 6.73908e-40 -2.49302e-40 1.62153e-40 7.63212e-40 -1.87202e-40 4.64338e-40
1.9454e-41 -1.023351e-39 -3.69406e-40 6.1836e-40 6.66261e-40 -1.176285e-39 -1.15368e-40 -6.11661e-40
-7.7580653e-38 -1.4071814e-38 3.958293e-39 -3.1760525e-38 -2.8166491e-38 -1.4664398e-22 1.8314212e-19 5.88498e-40
3.322456e-39 -5.99e-40 6.53701e-30 -2.4788515e-37 -4.9425686e-38 4.0468e-41 2.5885138e-38 -3.3279e-40
-2.57269e-40 -5.09303e-40 -6.9501e-40 -4.37781e-40 7.57203e-40 -2.93885e-40 -3.00528e-40 1.098448e-39
8.7441e-41 1.56887e-40 2.82114e-40 -3.61728e-40 6.18984e-40 5.3779e-41 -4.2708e-40 -4.01501e-40
-3.3178818e-16 9.83623e-15 -1.09357774e-13 1.6365775e-06 4.6421367e-11 6.8075e-40 -1.233877e-39 7.0212183e-38
-5.987756e-11 6.7478e-40 6.25331e-40 1.3562643e-10 1.8863852e-07 -3.976875e-39 2.00817e-40 -3.013518e-06
1.37822e-40 -1.31934e-39 -1.7781e-40 -1.166357e-39 4.4637e-40 -8.95277e-40 4.10589e-40 8.5865e-41
4.91161e-40 -8.0196e-40 1.86395e-40 -1.1441e-40 -2.75539e-40 -8.20223e-40 5.02138e-40 4.99152e-40
-1.06563445e-14 -4.3158475e-06 -2.2054975e-10 7.5824706e-16 -1.5978375e-07 -3.419335e-39 1.9043e-40 2.87484e-06
-4.85316e-13 -1.3037792e-38 6.909536e-39 3.805419e-15 -9.9847194e-14 -6.36394e-40 -1.286356e-10 9.871155e-07
-5.7037313e-09 6.516234e-08 -3.8080985e-14 -2.0757562e-14 -4.1919284e-21 0.01317279 -0.0066172625 3.305252e-07
2.4242235e-09 -6.447805e-18 -0.0050144093 1.5375985e-23 2.9981559e-06 0.08239779 4.0051296e-12 -1.8078979e-23
-4.38912e-40 6.01999e-40 -3.67936e-40 1.020912e-39 2.05954e-40 -1.31072e-39 1.4481e-40 -1.25563e-40
-2.00215e-40 8.2529e-40 1.53343e-40 5.2074e-40 5.01511e-40 1.45274e-40 -3.67292e-40 -7.83085e-40
0.0006325012 -0.024000289 1.0429956e-08 2.9104044e-10 2.8346305e-15 0.046286464 0.099530436 -0.00060205604
-9.496558e-05 -1.1098338e-12 0.03860592 -2.132682e-18 0.00026764785 -0.028708065 0.00012135394 -6.0501194e-21
-1.0200275e-05 -0.0015863182 -7.228467e-11 -1.0744448e-10 -1.5098541e-17 0.09020208 -0.002634352 -8.306508e-06
4.92164e-06 9.831849e-15 -0.016053602 4.6190712e-20 -2.364257e-06 -0.0039811158 -1.7259219e-05 1.0625575e-22
00000000: fb3e 2035 387c 34b8 95db 242d f808 3f2c
00000010: 177b aaa2 f087 b4bc d701 a03d 61d1 6837
00000020: d822 0c32 7526 f1a7 849d d83a 722b 011f
00000030: 5c6d 8237 a4a4 57bc 209a 53b6 0e56 031c
00000040: be13 ae35 a094 6929 202e 6ba7 f451 0035
00000050: 399f ae30 307a 8800 2f7a 4700 c4b8 8bb6
00000060: 77df a1a3 ee5c 3000 903c 8d00 bf49 732f
00000070: 56c8 b623 00ff 2681 94ff e924 b2db 83a7
00000080: c00e 7c39 dddc 0b3c 1d81 7031 84a5 002e
00000090: b619 4726 6281 3fbc f17c 093c 5f16 563a
000000a0: c950 2cb8 0fc1 20ab c09f b9bd 1d19 25a0
000000b0: 54bb d639 dd15 bcbb d41f 4838 5160 fb1e
000000c0: 543d ca02 8bc6 24ad 6ed5 2a2f de19 d42b
000000d0: ad12 5e36 8b4c b18d cda8 778c 50fe 5431
000000e0: a5d7 0380 b214 31a9 887f 8a8d 7003 0d80
000000f0: bfd9 3d03 dc8a f10d dcc9 3484 9ac0 2136
00000100: fe8c 1401 6eb3 9f34 7b87 0a80 30fd 0980
00000110: 2072 41b3 cdb2 0003 f881 cb02 c8ae 0200
00000120: d0e2 3125 25d7 0c01 40b6 1382 e41b 9924
00000130: fa42 2e38 3f40 f081 4c2b 0300 35bc 672a
00000140: 69be 0400 84cd 0780 6fdd 0780 ef65 0a00
00000150: 0849 0480 2373 0300 a54e 0100 8c06 0b80
00000160: 3257 0300 3b69 0180 4599 0200 58d6 0500
00000170: 0a59 0980 83d1 0c00 db1a 0880 8c8d 0c00
00000180: 3670 0400 8f30 0980 9556 0700 f4b6 0280
00000190: 04c4 0100 864f 0800 d809 0280 630e 0500
000001a0: 3b36 0000 b024 0b80 c105 0480 bcbb 0600
000001b0: 4441 0700 01cf 0c80 9941 0180 10a9 0680
000001c0: d331 d381 7e3a 9980 1c1a 2b00 b6eb 2c81
000001d0: 5c5a 1981 1d48 319b 4f37 5820 7e68 0600
000001e0: a82d 2400 c585 0680 1996 040f afb3 a882
000001f0: ad8c 8681 cf70 0000 9eee 0c01 af9f 0380
00000200: 29cd 0280 bb8b 0580 6891 0780 5bc4 0480
00000210: c63e 0800 3b33 0380 c045 0380 07f6 0b00
00000220: c0f3 0000 56b5 0100 6b12 0300 5af0 0380
00000230: 7abd 0600 ea95 0000 86a6 0480 395f 0480
00000240: 4b43 bfa5 9b31 3128 7740 f6a9 60a8 db35
00000250: d029 4c2e a769 0700 8c6f 0d80 c022 bf01
00000260: 12ac 83ae 0359 0700 2bcf 0600 721f 152f
00000270: 908c 4a34 e94d 2b80 cc2f 0200 d83b 4ab6
00000280: 3180 0100 c85d 0e80 a9ef 0180 54b3 0c80
00000290: 4cdc 0400 abbf 0980 8e78 0400 5bef 0000
000002a0: 2859 0500 8abb 0880 9807 0200 ee3e 0180
000002b0: 1700 0380 73ee 0880 c277 0500 6f6f 0500
000002c0: b7f7 3fa8 d9d0 90b6 3c7f 72af c28c 5a26
000002d0: 0691 2bb4 b73b 2580 d712 0200 60ed 4036
000002e0: b49a 08ab 0ff8 8d80 fa3c 4b00 cc1a 8927
000002f0: fdd5 e0a9 02ee 0680 b46f 0daf 087d 8435
00000300: 8dfa c3b1 60ef 8b33 6380 2ba9 aef7 baa8
00000310: d85d 9e9d b0d2 573c 9fd5 d8bb 0a73 b134
00000320: 6497 2631 cce1 eda2 ea4f a4bb 18b5 9419
00000330: ed33 4936 2cc0 a83d 00eb 8c2c 62d9 ae99
00000340: 82c7 0480 218e 0600 a801 0480 e31d 0b00
00000350: 1e3e 0200 c145 0e80 ac93 0100 055e 0180
00000360: 1e2e 0280 93fc 0800 75ab 0100 9cab 0500
00000370: 0276 0500 f794 0100 dcff 0380 ec86 0880
00000380: 70ce 253a 419c c4bc 6e2f 3332 4d00 a02f
00000390: b441 4c27 e096 3d3d 9dd6 cb3d 4cd3 1dba
000003a0: 4228 c7b8 fa31 9cab 3e21 1e3d 395d 1da2
000003b0: 1653 8c39 2d2d ebbc 677f fe38 2a91 e49d
000003c0: d921 2bb7 02ec cfba a7f4 9eae dd45 ecae
000003d0: 6c42 8ba3 debb b83d 18a5 2cbb 2e5c 0bb7
000003e0: 9124 a536 671d 3128 d882 83bc 2521 5a1f
000003f0: a0a9 1eb6 0574 82bb e4c7 90b7 9074 001b

fc1_2.bias f4 [16]
0.016368924 -3.96661e-40 0.03260998 -1.4100545e-23 -6.958135e-10 -4.64441e-40 -4.26494e-40 4.06744e-40
-2.96941e-40 3.97096e-40 -3.54374e-40 -1.95382e-40 0.0100168325 -5.12882e-40 -0.0042711343 0.013004487
00000000: 1f18 863c bb51 0480 0b92 053d 425f 8899
00000010: 8643 3fb0 ac0e 0580 e4a4 0480 d66d 0400
00000020: c03b 0380 f152 0400 dadb 0380 a520 0280
00000030: a41d 243c b595 0580 dff4 8bbb c610 553c

bn3.weight f4 [16]
0.07909539 1.0020734e-30 0.0783326 -8.243464e-14 -1.6218666e-23 1.52997e-40 6.771e-42 -2.65632e-40
-7.30486e-40 8.4093273e-32 -9.76443e-40 1.9286458e-31 0.056133088 1.59047e-40 0.062421825 0.07547841
00000000: c4fc a13d 8098 a20d d86c a03d 56a0 b9a9
00000010: 79db 9c99 7eaa 0100 e012 0000 79e4 0280
00000020: 4cf4 0780 9151 da0b eda1 0a80 405a 7a0c
00000030: cfeb 653d 5cbb 0100 07ae 7f3d 6d94 9a3d

bn3.bias f4 [16]
0.0037123822 -1.5208415e-19 0.00079594395 -4.744952e-21 1.3364684e-15 -3.444239e-19 7.500684e-23 3.5542965e-28
-1.848127e-19 -3.8679137e-20 -2.7322564e-16 1.4062107e-19 -0.00097225746 -9.063965e-25 -0.002540317 0.0037118834
00000000: 704b 733b 9d8c 33a0 e5a6 503a 5c42 b39d
00000010: fb9a c026 de4f cba0 fc5a b51a c247 e111
00000020: 3630 5aa0 35a8 369f fd80 9da5 1c04 2620
00000030: 18df 7eba 1142 8c97 727b 26bb 1243 733b

bn3.running_mean f4 [16]
0.016548546 1.9016915e-09 0.03103447 5.2582355e-11 2.020626e-09 6e-45 6e-45 1.0363881e-20
6e-45 1.9213746e-09 6e-45 7.8038646e-08 0.010182162 6e-45 0.0033043826 0.013156618
00000000: d190 873c e9ae 0231 003c fe3c 7842 672e
00000010: 3bdb 0a31 0400 0000 0400 0000 a7c4 431e
00000020: 0400 0000 2e09 0431 0400 0000 3396 a733
00000030: 15d3 263c 0400 0000 578e 583b db8e 573c

bn3.running_var f4 [16]
4.8224985e-05 5.833696e-28 3.797213e-05 3.4025013e-30 9.490892e-29 6e-45 6e-45 1.71623e-40
6e-45 6.4417e-28 6e-45 2.0133865e-25 1.3069578e-05 6e-45 2.4504627e-05 3.1250085e-05
00000000: 2f45 4a38 91e0 3812 4444 1f38 9805 8a0e
00000010: 699f f010 0400 0000 0400 0000 6ade 0100
00000020: 0400 0000 4725 4c12 0400 0000 c43e 7916
00000030: 6945 5b37 0400 0000 498f cd37 8612 0338

fc1_3.weight f4 [8, 16]
1.27154656e-26 -1.6669517e-37 2.8377656e-26 -6.294336e-11 1.4772238e-14 -9.1740826e-10 -1.6894097e-11 9.645314e-39
2.1553109e-14 -2.1485025e-08 9.40469e-06 5.472929e-12 1.3844752e-26 -1.993211e-09 1.7413285e-26 1.0988076e-26
-4.3542e-40 6.2408e-41 3.0282e-41 -7.03808e-40 -5.14478e-40 2.5352e-40 5.54626e-40 -3.90088e-40
1.026818e-39 -1.093216e-39 2.27576e-40 1.46403e-40 7.73409e-40 -3.24008e-40 3.5838e-40 -2.0654e-40
0.044942584 3.7183652e-22 -0.03992632 7.97088e-24 -1.1916159e-22 3.215443e-23 4.2232173e-24 -8.78716e-28
1.9051764e-23 3.566424e-23 1.9915838e-16 -8.212168e-21 0.04998503 -6.491244e-27 0.062394954 0.018750807
0.03404981 9.522958e-21 -0.07469016 -5.3720266e-23 -3.3812577e-19 -2.1660626e-20 1.8542852e-24 8.0821755e-30
-6.6153947e-21 -1.3941744e-21 2.8345269e-18 1.1672604e-20 -0.060536765 -3.7556845e-26 -0.01228369 -0.01250454
-0.05857029 -5.110812e-19 -0.04013944 1.0219668e-20 -3.1425207e-17 -1.0692577e-18 -4.8754658e-23 -4.384581e-28
7.187173e-19 5.1769958e-20 -3.8915327e-16 2.5628112e-20 0.023617763 -3.8652303e-24 0.049889855 -0.05481785
-0.06096252 -4.0905944e-22 -0.034896627 -5.6147205e-25 6.704465e-23 -6.2606407e-24 1.1978239e-25 6.1257553e-30
-5.848662e-24 -1.4390102e-23 3.8179472e-19 -1.3857056e-20 0.004565767 1.2321539e-27 0.031144172 0.075903624
3.888733e-18 -9.03247e-39 -7.3905954e-17 3.8569805e-09 3.1795754e-38 -1.4645576e-16 -1.0151297e-14 -1.288099e-39
-1.2282607e-27 3.3618624e-38 -2.8691922e-38 4.277951e-39 1.7807837e-29 6.908922e-12 -7.198371e-19 -1.04900034e-17
1.0474208e-11 -9.509651e-10 8.073422e-12 1.0594477e-10 -5.8828555e-05 1.7321286e-08 2.5380192e-13 -1.2794844e-37
-4.7558335e-09 -1.919544e-11 -9.663759e-07 1.4175037e-29 2.8194062e-12 7.647191e-15 -2.0503226e-12 4.6942356e-11
00000000: 12db 7b14 cae4 6282 f484 0c15 f669 8aae
00000010: 760e 8528 de2c 7cb0 209a 94ad 3607 6900
00000020: 1622 c228 128e b8b2 d6c8 1d37 c38f c02c
00000030: 9e1c 8914 f0f8 08b1 ec73 ac14 2aa4 5914
00000040: c6bd 0480 f8ad 0000 6a54 0000 eea9 0780
00000050: 289a 0580 b6c2 0200 120a 0600 683f 0480
00000060: 5a2e 0b00 71e7 0b80 647a 0200 1d98 0100
00000070: f36b 0800 3487 0380 05e7 0300 c03f 0280
00000080: b715 383d eac2 e01b c889 23bd e32d 1a19
00000090: ba0e 109b 427d 1b1a b860 a318 f53c 8b92
000000a0: e241 b819 3176 2c1a 2e9d 6525 9c1f 1b9e
000000b0: 1abd 4c3d 8492 0094 da91 7f3d 4b9b 993c
000000c0: d077 0b3d 33e2 331e 28f7 98bd 3ce3 819a
000000d0: 1f98 c7a0 2e94 cc9e e777 0f18 0eed 230f
000000e0: 2cec f99d 82ae d29c b326 5122 407d 5c1e
000000f0: 66f5 77bd f5f8 3995 8841 49bc d8df 4cbc
00000100: 67e7 6fbd 34d8 16a1 4169 24bd 480b 411e
00000110: 56ec 10a4 6acb 9da1 58c3 6b9a f2f3 0a92
00000120: be20 5421 0a7a 741f e354 e0a5 f90c f21e
00000130: 0a7a c13c 6387 9598 4e59 4c3d af88 60bd
00000140: d6b3 79bd e242 f79b c4ef 0ebd 66c4 2d97
00000150: a11a a21a 6232 f298 8e48 1416 7b7d f80e
00000160: 5842 e298 2b2c 8b99 305f e120 4ee0 829e
00000170: 6e9c 953b 1a3e c312 1022 ff3c 5c73 9b3d
00000180: 0b78 8f22 da5a 6280 606a aaa4 5c86 8431
00000190: d01c 2d01 1cda 28a5 98de 36a8 b206 0e80
000001a0: 2ca0 c292 8609 3701 b436 1c81 3095 2e00
000001b0: ca97 b40f 0916 f32c 5a75 54a1 a481 41a3
000001c0: a443 382d 1cb3 82b0 7607 0e2d 9af9 e82e
000001d0: aebe 76b8 e9c9 9432 b6e0 8e2a 8627 2e82
000001e0: c168 a3b1 4ad8 a8ad 6cb4 81b5 80c0 8f0f
000001f0: e865 462c 72c2 0928 5447 10ac 6574 4e2e

fc1_3.bias f4 [8]
1.6618866e-26 -5.3786e-40 0.01826253 0.015262706 0.009507703 0.020953957 -5.1571324e-29 -8.179053e-12
00000000: d595 a414 56db 0580 4d9b 953c 6e10 7a3c
00000010: 32c6 1b3c a2a7 ab3c b4bf 8290 2ee3 0fad

bn4.weight f4 [220]
-0.03889456 1.4850042e-06 1.1571671e-08 -0.0027092209 -1.2805947e-07 2.3374122e-08 -0.00014113593 -5.676506e-06
0.05246921 3.6801743e-05 0.013119558 0.001819616 0.0016863205 -0.0003169349 -0.002062067 -0.0002244166
-9.9124605e-05 0.035790913 -0.0030323917 0.0001985638 -0.0040251897 0.0013052536 4.4453598e-05 -0.0006414835
-0.00016736629 0.0018021344 0.013417051 -0.011300077 0.0003890035 0.0056307693 -9.0015073e-10 3.0961684e-05
1.8083938e-05 0.03255651 0.005334161 0.036239736 -0.005319944 -0.001105417 -0.03307356 -0.0008650982
-5.7962156e-06 0.001180342 -0.018207401 0.002411473 6.257942e-07 -0.04667068 2.867855e-05 0.0010686951
1.746313e-05 3.373139e-05 -0.0007560765 0.033331778 0.00089142704 0.0028672717 -9.486507e-05 -7.680215e-05
0.02978526 2.906432e-08 -0.00043564648 0.00012261553 3.3995325e-06 0.04887403 -2.0684647e-08 9.40342e-06
0.031209953 0.00018809341 0.00014705805 -0.00024837954 0.0026514414 -7.831012e-05 0.043166008 0.00018588228
6.521802e-05 -3.042919e-08 -1.7470742e-05 0.0007824587 -0.0023494363 -1.1291397e-05 -0.024904363 -0.0010046702
0.00022809303 -0.0007858631 0.0012315436 -0.00075546716 0.0003530811 1.8133236e-05 6.874323e-05 0.00014295572
3.299973e-07 -0.0006362597 0.0009075138 4.6608442e-05 -0.0006517728 2.4943233e-07 -6.539497e-05 -3.4600916e-06
0.0010450729 -0.00029096327 -1.424201e-05 -0.00020040385 -0.0010048356 -1.6358408e-06 -8.374612e-06 5.0167873e-06
-2.2022533e-07 -5.493802e-05 0.0018826162 -1.174572e-05 -9.901045e-06 -0.006630359 -8.000765e-11 0.00027326265
0.07425413 1.2927743e-06 1.1488669e-06 0.0013648341 6.8033174e-08 -4.6135647e-06 0.049242795 0.00017116313
0.039422117 0.056252647 -0.0019018026 0.06982301 -5.0064447e-10 0.00013977851 -8.103597e-08 0.001879923
-1.0738206e-05 5.345783e-05 0.027098939 0.024844425 0.0044677537 0.037088674 1.778984e-09 5.5438763e-05
0.03786813 0.00018723345 0.03457646 0.032032695 4.2811153e-05 0.039474674 -1.1904424e-08 -0.00012934192
-0.001027859 0.054854345 4.766878e-06 8.38421e-05 3.3728824e-08 -0.00064498745 0.056880727 0.00069159037
-0.0018736175 -0.00011579387 0.029123608 6.185497e-07 0.0018563292 0.050520234 -0.00024496735 -0.00025203085
0.00023383184 0.03089849 2.757605e-09 0.00024274338 0.007990582 -1.4161967e-07 -4.6695364e-05 8.637869e-06
0.0029109837 0.036608912 3.0135066e-05 1.9926116e-09 0.024105288 0.028461313 0.0044708904 5.4296967e-10
5.8705376e-05 0.0005378211 -0.0017197478 -1.0613368e-05 0.026810367 3.4112953e-05 -0.002033079 -1.1451826e-09
8.136967e-05 0.027750883 0.000113013215 -6.986127e-05 8.90018e-05 -0.00013537722 -8.889985e-05 -0.00025576082
4.509742e-05 -0.00047564588 0.00063808565 -0.00030048945 5.880347e-06 -1.4635011e-05 1.5520587e-05 3.5948813e-07
0.0012412454 0.002263202 4.4091234e-07 -1.2903933e-05 0.0009432552 0.0002538642 1.3962626e-06 2.4178243e-07
-0.00037927326 -0.0010452314 -0.0015598133 -5.5210316e-05 1.8718214e-05 2.3009197e-05 0.004950887 -0.004468187
-0.0027752651 -0.007886598 0.00038096428 -0.0056919334
00000000: e74f 1fbd 5b50 c735 bfcc 4632 2f8d 31bb
00000010: b880 09b4 3dc8 c832 e3fd 13b9 d178 beb6
00000020: f4e9 563d 925b 1a38 6af3 563c 2e80 ee3a
00000030: 8707 dd3a 482a a6b9 be23 07bb 5f51 6bb9
00000040: 1ee1 cfb8 7e99 123d 17bb 46bb 9035 5039
00000050: bde5 83bb 0b15 ab3a b073 3a38 3b29 28ba
00000060: 0c7f 2fb9 9935 ec3a 31d3 5b3c f523 39bc
00000070: 2af3 cb39 5182 b83b 7a6e 77b0 dbdc 0138
00000080: f6b2 9737 fa59 053d 30ca ae3b 1e70 143d
00000090: ed52 aebb a4e3 90ba 2478 07bd c2c7 62ba
000000a0: 1d7d c2b6 b5b5 9a3a b027 95bc ce09 1e3b
000000b0: 40fc 2735 c129 3fbd b892 f037 7513 8c3a
000000c0: c97d 9237 ce7a 0d38 6f33 46ba e786 083d
000000d0: a8ae 693a d6e8 3b3b 4cf2 c6b8 d710 a1b8
000000e0: 3800 f43c 1ea9 f932 7b67 e4b9 5b92 0039
000000f0: 8623 6436 2330 483d 05ae b1b2 62c3 1d37
00000100: 04ac ff3c f13a 4539 9833 1a39 f038 82b9
00000110: cec3 2d3b 6d3a a4b8 d7ce 303d 65e9 4239
00000120: a8c5 8838 40b1 02b3 228e 92b7 ea1d 4d3a
00000130: 00f9 19bb 2e70 3db7 3c04 ccbc 23af 83ba
00000140: 422c 6f39 6102 4eba bf6b a13a 8b0a 46ba
00000150: be1d b939 d41c 9837 3e2a 9038 62e6 1539
00000160: 7c2a b134 aaca 26ba 38e6 6d3a 6f7d 4338
00000170: bbdb 2aba b8e9 8534 a824 89b8 ec33 68b6
00000180: d4fa 883a 6e8c 98b9 f8f0 6eb7 8023 52b9
00000190: b0b4 83ba 108f dbb5 af80 0cb7 e055 a836
000001a0: 1477 6cb4 406d 66b8 1ec2 f63a 7c0f 45b7
000001b0: aa1c 26b7 7c43 d9bb 4ef0 afae b144 8f39
000001c0: 8d12 983d 6383 ad35 c432 9a35 3ce4 b23a
000001d0: a219 9233 38ce 9ab6 d0b2 493d 417a 3339
000001e0: 1679 213d 2d69 663d e845 f9ba 5eff 8e3d
000001f0: b99d 09b0 8291 1239 ff05 aeb3 c067 f63a
00000200: 3e28 34b7 e837 6038 98fe dd3c 8986 cb3c
00000210: 3c66 923b 4bea 173d 6f80 f430 eb86 6838
00000220: 9d1b 1b3d 1954 4439 0ca0 0d3d b734 033d
00000230: 2090 3338 32b0 213d 3684 4cb2 f59f 07b9
00000240: 3ab9 86ba f3ae 603d 2cf3 9f36 62d4 af38
00000250: 3cdd 1033 6014 29ba c4fb 683d d84b 353a
00000260: 2c94 f5ba 5cd6 f2b8 a294 ee3c 690a 2635
00000270: 1250 f33a 4eee 4e3d f66e 80b9 0223 84b9
00000280: c230 7539 d51e fd3c 4d80 3d31 ee88 7e39
00000290: eeea 023c 1e10 18b4 c4da 43b8 5deb 1037
000002a0: 34c6 3e3b 3af3 153d 90ca fc37 65ee 0831
000002b0: 7478 c53c b327 e93c 8c80 923b 1840 1530
000002c0: 6b3a 7638 90fc 0c3a 2969 e1ba 1210 32b7
000002d0: 6aa1 db3c 8114 0f38 683d 05bb 8864 9db0
000002e0: 02a5 aa38 d255 e33c 8201 ed38 7c82 92b8
000002f0: 7aa6 ba38 0cf4 0db9 be6f bab8 a317 86b9
00000300: fc26 3d38 1c60 f9b9 3445 273a 038b 9db9
00000310: cc4f c536 e588 75b7 3532 8237 acff c034
00000320: 49b1 a23a 3b52 143b 88b6 ec34 f87d 58b7
00000330: c944 773a 1319 8539 3867 bb35 53ce 8134
00000340: 32d9 c6b9 2500 89ba a672 ccba a091 67b8
00000350: 0f05 9d37 e003 c137 0d3b a23b df69 92bb
00000360: 39e1 35bb ca36 01bc 29bc c739 6683 babb

bn4.bias f4 [220]
-0.0008591922 -9.186195e-07 -9.286865e-10 7.124335e-05 8.738273e-08 -1.6808409e-09 5.3921747e-05 6.4051696e-06
-5.1254938e-05 -3.1530562e-06 -0.0026690005 -0.0009992555 -0.0002603129 7.5830874e-05 0.0006106366 -2.243241e-05
2.7405737e-05 -0.00087213836 0.00043757813 -0.0002959199 0.0016072252 0.00013276908 3.899922e-05 -0.0010686048
-0.00018001535 9.68138e-06 -0.00081305543 0.00045997792 1.7411588e-05 0.0011227153 -5.4352467e-10 4.367997e-06
5.0599697e-06 0.001437946 0.0003830382 0.0011472671 -0.00031361028 -0.00014104586 -0.0011192868 -0.0006003771
-9.0749256e-07 -6.352392e-05 -0.0007761202 0.00028722163 -1.0074261e-05 -0.0012090189 -2.8449456e-06 -0.000587884
-1.882239e-05 1.900878e-05 -2.0219191e-05 0.0007312538 0.00053319545 0.0010859596 3.062143e-05 0.0002343095
3.1734613e-05 -2.5906637e-08 -0.00024144977 2.448998e-06 5.860444e-06 -0.00025333028 4.4133813e-08 -3.0375154e-06
-0.00010540264 -0.00019130082 -0.00019452597 -0.00037558333 -0.0042045102 -5.5135308e-05 -0.0010489656 0.00033391654
-0.00087909447 1.578981e-08 0.00016202494 0.0007572615 0.00047699863 3.4300201e-06 0.00046986414 0.00013249883
-8.3425275e-06 0.00016399044 3.3160097e-05 -0.00016873932 0.00042608762 -1.7486718e-05 3.398586e-05 0.00011497419
-3.826536e-07 1.9122508e-06 6.7252346e-05 -2.2494538e-05 0.0002838063 -1.2353186e-07 1.01412525e-05 4.331087e-08
-0.00059120794 4.456341e-05 1.2746701e-05 0.00011044933 0.00029806545 -5.8951882e-05 -1.3715045e-06 0.00029031213
-1.898164e-07 -0.000170157 0.0012218674 -7.788167e-06 -4.5352317e-06 -0.00095098594 -6.5634304e-12 -3.6500514e-06
-0.00032465812 -2.554673e-07 -4.5548217e-07 1.1384257e-05 -2.1413789e-09 7.29377e-08 -0.0008058256 9.739575e-05
-0.0004278428 -0.00025202992 0.00018036217 -0.00019840777 -8.175406e-11 -3.340103e-05 1.7862108e-08 -0.00021936194
-1.5456394e-06 1.9173793e-05 -0.0006463238 -0.00080554414 0.0034142935 -0.000724992 4.482083e-10 3.1192907e-05
-0.001245035 -0.00013385959 -0.0005936137 -0.00092931173 -0.00027104438 -0.0009060172 1.119563e-08 0.0001358487
0.0015767601 -0.0009864853 -1.2327029e-06 0.00016075067 -2.6540928e-08 0.002047867 -0.00078469404 0.00050072867
0.00022522362 -3.054317e-05 -0.00088850234 -3.850608e-09 0.005059969 -0.0016926867 0.00058139046 4.6171743e-05
-0.0015143224 -0.0014614486 -2.385536e-10 -7.257349e-06 -0.0008911313 4.003294e-09 -0.0010658953 3.5384937e-06
-0.00040995245 -0.0011704401 0.00044817105 3.9259168e-10 -0.0008824142 -0.00044464672 -0.003431536 3.426514e-10
0.00015903059 -0.00012051356 0.00038604933 -7.503143e-05 -0.0011349659 2.7744409e-06 -0.0003544159 -8.988936e-10
2.279318e-05 -0.0011295909 6.501045e-05 -7.15989e-05 0.0007038908 -6.2183186e-05 -7.7659526e-05 0.0006717311
5.0976727e-05 -0.0001377536 0.0007727676 -0.000313502 9.906784e-05 -2.8319778e-06 2.65597e-06 -5.8612475e-08
0.00017148723 7.502393e-05 3.803477e-08 3.2979626e-06 -5.3923955e-05 1.6164428e-05 4.7671844e-07 2.7600338e-08
0.00024508193 0.00018375446 0.00022262344 3.9414294e-06 -2.3377575e-06 8.773153e-07 0.0006022912 -0.0013148938
-0.00014158466 0.0012521473 -0.00014866616 0.00028888712
00000000: 6a3b 61ba 0d97 76b5 8146 7fb0 7b68 9538
00000010: 2aa7 bb33 5503 e7b0 092a 6238 fdeb d636
00000020: 92fa 56b8 1899 53b6 66ea 2ebb 73f9 82ba
00000030: 9b7a 88b9 6407 9f38 2113 203a 3c2d bcb7
00000040: 5fe5 e537 37a0 64ba be6a e539 b225 9bb9
00000050: 87a9 d23a ee37 0b39 1893 2338 6d10 8cba
00000060: 81c2 3cb9 366d 2237 3a23 55ba 3129 f139
00000070: 1a0f 9237 1328 933a 2667 15b0 cf90 9236
00000080: cfc8 a936 7679 bc3a 84d2 c839 e55f 963a
00000090: 0f6c a4b9 b6e5 13b9 08b5 92ba a062 1dba
000000a0: 6a9a 73b5 2538 85b8 8c74 4bba 3c96 9639
000000b0: 9f04 29b7 f177 9eba cbeb 3eb6 3a1c 1aba
000000c0: c6e4 9db7 0b75 9f37 629c a9b7 9db1 3f3a
000000d0: 24c6 0b3a c256 8e3a 836f 0038 fab0 7539
000000e0: c81a 0538 4c89 deb2 ae2d 7db9 7759 2436
000000f0: d5a4 c436 6ad1 84b9 a48d 3d33 1ed8 4bb6
00000100: 9d0b ddb8 ec97 48b9 abf9 4bb9 f1e9 c4b9
00000110: fdc5 89bb 1641 67b8 727d 89ba 8511 af39
00000120: 0873 66ba 29a2 8732 3de5 2939 f682 463a
00000130: ac15 fa39 4c2f 6636 1958 f639 62ef 0a39
00000140: e2f6 0bb7 d9f4 2b39 6215 0b38 9eef 30b9
00000150: 8364 df39 71b0 92b7 0a8c 0e38 4c1e f138
00000160: 836f cdb4 3854 0036 d409 8d38 a7b2 bcb7
00000170: d6cb 9439 2ea4 04b4 5924 2a37 ce04 3a33
00000180: 4bfb 1aba 99e9 3a38 aada 5537 08a1 e738
00000190: ab45 9c39 1a43 77b8 8914 b8b5 0935 9839
000001a0: 56d0 4bb4 2c6c 32b9 1127 a03a eca9 02b7
000001b0: 582d 98b6 964b 79ba 20ee e6ac 68f3 74b6
000001c0: e036 aab9 2927 89b4 fe88 f4b4 03ff 3e37
000001d0: 8927 13b1 eda1 9c33 0a3e 53ba f240 cc38
000001e0: 1750 e0b9 e222 84b9 9a1f 3d39 ae0b 50b9
000001f0: 72c7 b3ae 1518 0cb8 316f 9932 8604 66b9
00000200: c473 cfb5 68d7 a037 0e6e 29ba 272b 53ba
00000210: 57c2 5f3b 640d 3eba b667 f62f 21d5 0238
00000220: 7130 a3ba a95c 0cb9 be9c 1bba 0e9d 73ba
00000230: f61a 8eb9 c981 6dba e756 4032 9c72 0e39
00000240: 4aab ce3a f44c 81ba 5973 a5b5 2e8f 2839
00000250: 1efc e3b2 8235 063b edb3 4dba 5543 033a
00000260: 012a 6c39 7b1b 00b8 62ea 68ba 4e4e 84b1
00000270: 19ce a53b 24dd ddba 7468 183a 88a8 4138
00000280: 3a7c c6ba 148e bfba 6f25 83af 2784 f3b6
00000290: cf9a 69ba 598d 8931 83b5 8bba dc76 6d36
000002a0: e3ee d6b9 7469 99ba 80f8 ea39 5ed4 d72f
000002b0: d151 67ba 791f e9b9 9fe3 60bb e65f bc2f
000002c0: 73c1 2639 3abc fcb8 aa66 ca39 315a 9db8
000002d0: 23c3 94ba 8830 3a36 e6d0 b9b9 0416 77b0
000002e0: fb33 bf37 c80e 94ba 3856 8838 5e27 96b8
000002f0: 5085 383a 5868 82b8 24dd a2b8 1c17 303a
00000300: d8cf 5538 f371 10b9 8e93 4a3a 875d a4b9
00000310: a4c2 cf38 020d 3eb6 383d 3236 19bd 7bb3
00000320: 41d1 3339 2a56 9d38 ac5b 2333 9152 5d36
00000330: 682c 62b8 d898 8737 afef ff34 c915 ed32
00000340: 577e 8039 36ae 4039 0670 6939 9f40 8436
00000350: 5ee2 1cb6 a680 6b35 14e3 1d3a 8458 acba
00000360: 5876 14b9 171f a43a 45e3 1bb9 c675 9739

bn4.running_mean f4 [220]
-2.7357485 -2.735071 -2.7282598 -2.7210639 -2.700034 -2.6803052 -2.655306 -2.6296139
-2.597697 -2.5586817 -2.5182128 -2.4728968 -2.4293108 -2.3940995 -2.350081 -2.3057406
-2.2699316 -2.2381568 -2.209497 -2.1895177 -2.1490486 -2.103254 -2.0501266 -2.0201688
-2.0028434 -1.9851851 -1.9679761 -1.9572197 -1.9477869 -1.9511486 -1.9536117 -1.9575342
-1.96246 -1.9678032 -1.9692221 -1.9777161 -1.9897962 -2.0014925 -2.0144515 -2.0268993
-2.0400589 -2.0566163 -2.0733387 -2.0896297 -2.1063097 -2.1229215 -2.139381 -2.1566
-2.1719227 -2.1879582 -2.203443 -2.218888 -2.2347808 -2.2514508 -2.2695293 -2.2874405
-2.3058949 -2.324456 -2.342554 -2.3597438 -2.4433951 -2.5206385 -2.6028733 -2.6782615
-2.7552633 -2.829243 -2.9045122 -2.972317 -3.04098 -3.109642 -3.242594 -3.3713393
-3.4969 -3.6144514 -3.7261283 -3.8380697 -3.9464715 -4.051459 -4.149638 -4.239969
-4.3284125 -4.410074 -4.489358 -4.570516 -4.6493077 -4.7191896 -4.787919 -4.85586
-4.923167 -4.987731 -5.1110177 -5.2216167 -5.325022 -5.424717 -5.5241146 -5.6216245
-5.716937 -5.8050914 -5.8871603 -5.963839 -6.1384315 -6.2943044 -6.435301 -6.5670385
-6.688363 -6.803505 -6.9137735 -7.017948 -7.117158 -7.210777 -2.7418957 -2.7410154
-2.7336404 -2.7277694 -2.7053976 -2.6864555 -2.6631703 -2.6357665 -2.5978177 -2.5618973
-2.5228248 -2.4795632 -2.4399962 -2.4059856 -2.3686843 -2.3303506 -2.2943392 -2.261625
-2.2253902 -2.1968534 -2.1434593 -2.0927255 -2.048458 -2.0212054 -2.0021615 -1.9872868
-1.9788646 -1.971583 -1.9682258 -1.9661084 -1.9651397 -1.9703883 -1.9819471 -1.9897838
-1.9990348 -2.0045996 -2.010081 -2.0187814 -2.027071 -2.0387564 -2.0503042 -2.064132
-2.0799491 -2.094226 -2.1065438 -2.1207373 -2.1343455 -2.1487317 -2.1618712 -2.1763902
-2.1935706 -2.211641 -2.2282114 -2.2425346 -2.25732 -2.273668 -2.2897832 -2.3050299
-2.3208482 -2.3351703 -2.4213989 -2.506421 -2.5941777 -2.6715333 -2.7473998 -2.8306146
-2.909905 -2.984774 -3.0552335 -3.117289 -3.248266 -3.3739014 -3.501155 -3.6120548
-3.720124 -3.8282273 -3.9318068 -4.0425253 -4.1453705 -4.2372994 -4.3242893 -4.408202
-4.487025 -4.5616736 -4.636044 -4.7116923 -4.785251 -4.8588786 -4.929417 -4.997348
-5.1245413 -5.236914 -5.3381987 -5.4350224 -5.530608 -5.62019 -5.7083187 -5.7926884
-5.873283 -5.9504895 -6.1308002 -6.290462 -6.4358897 -6.5721936 -6.704444 -6.827445
-6.9402237 -7.0466466 -7.1464257 -7.2406964
00000000: 8116 2fc0 670b 2fc0 cf9b 2ec0 e925 2ec0
00000010: 5bcd 2cc0 1f8a 2bc0 89f0 29c0 984b 28c0
00000020: ab40 26c0 71c1 23c0 662a 21c0 f143 1ec0
00000030: d479 1bc0 ed38 19c0 ba67 16c0 4191 13c0
00000040: 8f46 11c0 f63d 0fc0 6668 0dc0 0f21 0cc0
00000050: 038a 09c0 b79b 06c0 4635 03c0 724a 01c0
00000060: 962e 00c0 8c1a febf a4e6 fbbf 2d86 fabf
00000070: 1551 f9bf 3dbf f9bf f30f fabf 7b90 fabf
00000080: e431 fbbf fae0 fbbf 780f fcbf cd25 fdbf
00000090: a4b1 febf 7418 00c0 c6ec 00c0 b8b8 01c0
000000a0: 5390 02c0 9a9f 03c0 95b1 04c0 7ebc 05c0
000000b0: c7cd 06c0 f2dd 07c0 9eeb 08c0 bc05 0ac0
000000c0: c800 0bc0 8207 0cc0 3605 0dc0 4302 0ec0
000000d0: a606 0fc0 c517 10c0 f83f 11c0 6d65 12c0
000000e0: c893 13c0 e3c3 14c0 68ec 15c0 0b06 17c0
000000f0: 9660 1cc0 2452 21c0 7a95 26c0 a368 2bc0
00000100: 3c56 30c0 5112 35c0 87e3 39c0 713a 3ec0
00000110: 6b9f 42c0 6004 47c0 a986 4fc0 06c4 57c0
00000120: 36cd 5fc0 2c53 67c0 e378 6ec0 efa2 75c0
00000130: fd92 7cc0 8da5 81c0 d6c9 84c0 d3ad 87c0
00000140: 5b82 8ac0 541f 8dc0 d2a8 8fc0 ab41 92c0
00000150: 21c7 94c0 9a03 97c0 a236 99c0 3563 9bc0
00000160: 968a 9dc0 7e9b 9fc0 758d a3c0 7c17 a7c0
00000170: 9566 aac0 4897 adc0 8cc5 b0c0 59e4 b3c0
00000180: 26f1 b6c0 4fc3 b9c0 9e63 bcc0 c5d7 bec0
00000190: 086e c4c0 f16a c9c0 fced cdc0 2e25 d2c0
000001a0: 1207 d6c0 50b6 d9c0 a23d ddc0 0893 e0c0
000001b0: c2bf e3c0 afbe e6c0 387b 2fc0 cc6c 2fc0
000001c0: f7f3 2ec0 c693 2ec0 3c25 2dc0 e3ee 2bc0
000001d0: 6271 2ac0 66b0 28c0 a542 26c0 20f6 23c0
000001e0: f675 21c0 2ab1 1ec0 e628 1cc0 abfb 19c0
000001f0: 8698 17c0 7724 15c0 74d6 12c0 77be 10c0
00000200: cb6c 0ec0 3f99 0cc0 702e 09c0 37ef 05c0
00000210: f019 03c0 6e5b 01c0 6a23 00c0 6a5f febf
00000220: 6f4b fdbf d55c fcbf d3ee fbbf 71a9 fbbf
00000230: b389 fbbf af35 fcbf 71b0 fdbf 3cb1 febf
00000240: 5fe0 ffbf 5c4b 00c0 2ba5 00c0 b733 01c0
00000250: 88bb 01c0 fc7a 02c0 2f38 03c0 bd1a 04c0
00000260: e31d 05c0 cc07 06c0 9dd1 06c0 29ba 07c0
00000270: 1e99 08c0 d284 09c0 195c 0ac0 fa49 0bc0
00000280: 7663 0cc0 878b 0dc0 049b 0ec0 b085 0fc0
00000290: ee77 10c0 c783 11c0 cf8b 12c0 9c85 13c0
000002a0: c788 14c0 6e73 15c0 33f8 1ac0 3469 20c0
000002b0: 0207 26c0 67fa 2ac0 66d5 2fc0 ca28 35c0
000002c0: e23b 3ac0 8a06 3fc0 f288 43c0 aa81 47c0
000002d0: 97e3 4fc0 00ee 57c0 ec12 60c0 e82b 67c0
000002e0: 8316 6ec0 ad01 75c0 b9a2 7bc0 5e5c 81c0
000002f0: e0a6 84c0 f597 87c0 9460 8ac0 fe0f 8dc0
00000300: b595 8fc0 3bf9 91c0 795a 94c0 2fc6 96c0
00000310: c720 99c0 ef7b 9bc0 c9bd 9dc0 46ea 9fc0
00000320: 3efc a3c0 cd94 a7c0 86d2 aac0 b4eb adc0
00000330: befa b0c0 99d8 b3c0 8caa b6c0 b45d b9c0
00000340: eff1 bbc0 696a bec0 842f c4c0 774b c9c0
00000350: cff2 cdc0 694f d2c0 ce8a d6c0 6e7a dac0
00000360: 5016 dec0 217e e1c0 85af e4c0 c9b3 e7c0

bn4.running_var f4 [220]
1.379781 1.3816909 1.3902074 1.3988416 1.418166 1.430129 1.4455072 1.4538401
1.4655195 1.4785701 1.4833914 1.4895304 1.4885632 1.4859432 1.480748 1.4703339
1.4731431 1.491394 1.4892087 1.4927157 1.4997017 1.4920409 1.4924948 1.4870021
1.4750972 1.4628128 1.4544476 1.451974 1.4482213 1.4457078 1.4425029 1.442593
1.448611 1.4531165 1.4619042 1.4692391 1.4822097 1.4884877 1.4929761 1.4928082
1.4938502 1.4932109 1.4902478 1.4997351 1.5211284 1.5379992 1.5483803 1.564836
1.572401 1.577346 1.5830423 1.5975053 1.6119064 1.6273665 1.6418574 1.6558621
1.6703942 1.6787266 1.6864167 1.6916214 1.7162505 1.7461659 1.8129456 1.8444239
1.8668314 1.8852575 1.9214103 1.9295582 1.9501884 1.9825982 2.0436778 2.1158195
2.2012525 2.2497675 2.2839217 2.3413877 2.386948 2.4275184 2.472576 2.5280983
2.5882409 2.64542 2.6832569 2.72163 2.7665884 2.808819 2.8518748 2.883383
2.91168 2.9369242 2.9756658 3.0200334 3.0601141 3.0860226 3.1018083 3.098364
3.0945654 3.0925784 3.084913 3.0867505 3.0954094 3.108314 3.1106908 3.098238
3.0864666 3.0636387 3.0300496 2.993371 2.9479258 2.898292 1.3928744 1.3947047
1.4034109 1.4073389 1.4248083 1.4419174 1.4450687 1.4572098 1.4754997 1.4807742
1.4897245 1.4963216 1.5022483 1.500883 1.4929123 1.4776348 1.480638 1.4893848
1.4932108 1.4995596 1.5156225 1.5196939 1.5132985 1.5027417 1.4982514 1.4830799
1.481748 1.4926463 1.4883188 1.4825083 1.4752437 1.474179 1.4736072 1.4735829
1.4760182 1.4886001 1.4997642 1.5164824 1.5255747 1.5373173 1.5474246 1.5530925
1.5513499 1.552285 1.5536736 1.5630358 1.5777428 1.5919497 1.6069506 1.6267877
1.6468053 1.663912 1.6734328 1.6766318 1.6796464 1.6852343 1.6975405 1.7087992
1.7182674 1.7306566 1.7806678 1.8218473 1.841948 1.8778075 1.8833979 1.8828027
1.9120163 1.9348398 1.962474 2.0095506 2.0802772 2.1290615 2.1842513 2.2234297
2.2656026 2.3147588 2.3704562 2.421474 2.4499826 2.4961932 2.542409 2.5979393
2.6585927 2.7113533 2.7717667 2.8190532 2.8502288 2.8722835 2.8850477 2.9023023
2.9320948 2.9597483 2.9891546 3.0082438 3.0292232 3.050032 3.0653448 3.074714
3.0866501 3.093944 3.085281 3.0898943 3.097504 3.0848508 3.0548356 3.0129595
2.9657815 2.9101303 2.8558261 2.8033025
00000000: aa9c b03f 3fdb b03f 51f2 b13f 3e0d b33f
00000010: 7786 b53f 780e b73f 6106 b93f 6f17 ba3f
00000020: 2596 bb3f c941 bd3f c5df bd3f efa8 be3f
00000030: 3d89 be3f 6333 be3f 2789 bd3f e733 bc3f
00000040: f48f bc3f 00e6 be3f 649e be3f 4f11 bf3f
00000050: 3af6 bf3f 32fb be3f 120a bf3f 1656 be3f
00000060: fccf bc3f 733d bb3f 572b ba3f 49da b93f
00000070: 515f b93f f40c b93f efa3 b83f e3a6 b83f
00000080: 166c b93f b9ff b93f ad1f bb3f 0710 bc3f
00000090: 0cb9 bd3f c486 be3f d719 bf3f 5714 bf3f
000000a0: 7c36 bf3f 8921 bf3f 71c0 be3f 52f7 bf3f
000000b0: 56b4 c23f 28dd c43f 5331 c63f 8c4c c83f
000000c0: 7044 c93f 79e6 c93f 21a1 ca3f 0e7b cc3f
000000d0: f352 ce3f 8c4d d03f 6228 d23f 4af3 d33f
000000e0: 7acf d53f 83e0 d63f 81dc d73f 0d87 d83f
000000f0: 19ae db3f 5d82 df3f 9a0e e83f 1516 ec3f
00000100: 55f4 ee3f 1e50 f13f c6f0 f53f c3fb f63f
00000110: c69f f93f c7c5 fd3f 9ecb 0240 9669 0740
00000120: 52e1 0c40 31fc 0f40 c62b 1240 4cd9 1540
00000130: c2c3 1840 765c 1b40 af3e 1e40 5dcc 2140
00000140: bda5 2540 904e 2940 7bba 2b40 302f 2e40
00000150: c90f 3140 b1c3 3340 1e85 3640 5989 3840
00000160: f758 3a40 91f6 3b40 4f71 3e40 3a48 4140
00000170: e9d8 4340 6581 4540 0784 4640 994b 4640
00000180: 5c0d 4640 ceec 4540 376f 4540 528d 4540
00000190: 301b 4640 9eee 4640 8f15 4740 8849 4640
000001a0: ab88 4540 a812 4440 55ec 4140 6493 3f40
000001b0: d1aa 3c40 9e7d 3940 b549 b23f af85 b23f
000001c0: f8a2 b33f ae23 b43f 1e60 b63f c090 b83f
000001d0: 03f8 b83f da85 ba3f 2ddd bc3f 028a bd3f
000001e0: 4baf be3f 7787 bf3f ac49 c03f ef1c c03f
000001f0: c017 bf3f 2323 bd3f 8c85 bd3f 29a4 be3f
00000200: 8821 bf3f 92f1 bf3f ebff c13f 5485 c23f
00000210: c4b3 c13f d759 c03f b4c6 bf3f 90d5 bd3f
00000220: eba9 bd3f 090f bf3f 3b81 be3f d5c2 bd3f
00000230: c9d4 bc3f e6b1 bc3f 299f bc3f 5d9e bc3f
00000240: 2aee bc3f 738a be3f 46f8 bf3f 181c c23f
00000250: 0846 c33f d0c6 c43f 0212 c63f bccb c63f
00000260: a292 c63f 46b1 c63f c7de c63f 8f11 c83f
00000270: 7af3 c93f 02c5 cb3f 8fb0 cd3f 943a d03f
00000280: 84ca d23f 12fb d43f 0c33 d63f df9b d63f
00000290: a7fe d63f c2b5 d73f 0249 d93f efb9 da3f
000002a0: 30f0 db3f 2886 dd3f ecec e33f 4b32 e93f
000002b0: f4c4 eb3f ff5b f03f 2f13 f13f aeff f03f
000002c0: f3bc f43f d5a8 f73f 5932 fb3f 7a9c 0040
000002d0: 4323 0540 8b42 0840 c6ca 0b40 ac4c 0e40
000002e0: a2ff 1040 0225 1440 8eb5 1740 6ef9 1a40
000002f0: 84cc 1c40 a1c1 1f40 d4b6 2240 a344 2640
00000300: 6226 2a40 d086 2d40 a064 3140 5e6b 3440
00000310: 266a 3640 7ed3 3740 9fa4 3840 52bf 3940
00000320: 71a7 3b40 846c 3d40 4f4e 3f40 1187 4040
00000330: cbde 4140 b933 4340 9c2e 4440 1dc8 4440
00000340: ad8b 4540 2e03 4640 3e75 4540 d4c0 4540
00000350: 813d 4640 326e 4540 6d82 4340 54d4 4040
00000360: 5dcf 3d40 933f 3a40 dbc5 3640 4f69 3340

fc2_1.weight f4 [32, 220]
-4.574654e-11 1.7620975e-14 -1.9676207e-16 -2.1148047e-11 -1.1299548e-13 1.3010109e-17 3.0009994e-09 2.0051776e-13
-3.1631493e-11 6.309558e-14 1.6522462e-11 2.3005969e-11 -1.7187835e-12 -3.8861823e-13 -6.6710804e-12 -6.763851e-13
3.1712399e-13 1.6524257e-10 -2.8060077e-11 -6.0858764e-07 3.293829e-11 4.3491933e-12 1.7369133e-12 2.3610558e-12
2.8873874e-12 -2.2478705e-11 -5.723718e-11 5.203899e-11 2.0618284e-13 -2.2316931e-12 4.9523928e-18 3.048796e-14
1.1992245e-14 1.9836581e-10 4.5591864e-12 2.0537265e-10 -2.1779917e-12 2.6195907e-11 -1.5759406e-10 3.311472e-11
-2.3987973e-15 7.4773813e-13 8.159227e-11 8.1386686e-12 3.6426092e-13 -2.0411438e-11 -1.9027613e-14 -5.705492e-06
-1.1982173e-13 -1.4089982e-12 -1.0662161e-12 1.7092362e-10 4.166443e-11 -1.2926254e-11 -3.8159597e-12 -9.796712e-12
5.8014933e-11 7.8081826e-17 -7.069986e-12 -1.0901486e-13 3.6640097e-14 -6.862012e-11 -5.06499e-11 1.5908791e-13
8.0582346e-11 6.294677e-12 -2.1816114e-12 -2.838103e-12 -2.698992e-06 9.342592e-13 -3.5664548e-11 -2.741436e-07
-1.7115861e-12 -1.5788461e-15 -4.3485034e-13 3.0411586e-11 2.523995e-12 1.0341727e-05 -4.7177928e-11 1.1869668e-12
2.6939436e-12 2.3214007e-12 -7.97222e-12 2.7194594e-12 3.5781582e-08 -7.329705e-13 2.5495366e-14 -5.5289513e-13
4.0879284e-15 7.801572e-14 -1.2113513e-12 4.3802218e-13 -6.4079484e-12 -1.7583096e-14 6.652346e-15 2.2595268e-14
-1.4987302e-12 7.295332e-13 2.1546105e-12 -4.981085e-12 3.1138167e-13 2.7045811e-12 2.2097087e-13 2.7572773e-12
-1.9975732e-16 9.344215e-13 -3.1642692e-11 1.878381e-13 1.8773801e-13 4.693354e-12 -4.2628453e-19 -1.0769033e-11
-2.2821386e-10 -9.533943e-15 -3.04577e-15 5.6892585e-10 1.628549e-10 -8.555401e-14 2.574522e-11 9.767109e-12
1.5762362e-10 -1.9974782e-11 -1.004512e-12 -6.360675e-11 -2.4066665e-19 5.6444996e-13 -4.14307e-16 5.5212137e-12
1.331444e-07 3.830639e-08 9.2715245e-12 1.5569417e-10 -1.7110837e-11 -6.594805e-11 5.8984897e-18 -1.1261749e-13
1.4632978e-10 5.897567e-12 1.1720547e-10 1.5395711e-10 5.6696163e-12 1.1169142e-10 6.698578e-17 9.22954e-13
-2.0016369e-11 -1.7468267e-10 -1.1727247e-14 -7.712608e-09 1.5025902e-15 -1.272563e-11 -1.8870891e-10 7.6498714e-13
-1.7862738e-12 1.8493538e-06 8.444571e-11 5.051301e-15 -6.3806446e-11 -6.6503344e-11 2.7561006e-11 6.232677e-12
3.7952e-11 3.7971286e-11 -1.8863114e-17 2.1838893e-09 -1.0763558e-10 -1.1570487e-15 -1.6286651e-12 3.5650416e-08
3.5122537e-11 -6.8079764e-11 -1.0179442e-11 -1.9745317e-17 2.6244043e-11 -8.883912e-12 3.557338e-06 -1.7317516e-17
-4.5791634e-12 -1.6920215e-12 2.392703e-11 -2.1265238e-13 2.7423352e-11 -5.792558e-14 -1.4150365e-11 -4.9817356e-17
-2.913299e-13 9.6497975e-12 3.8230903e-12 1.3001255e-12 8.003216e-12 -1.3258682e-12 1.0398054e-12 1.6938312e-11
6.236864e-13 7.411053e-12 5.5217515e-12 5.1816134e-12 8.422847e-13 8.516137e-16 -1.7655314e-14 -3.806249e-07
2.4430158e-12 5.6501147e-13 3.4902924e-15 -4.0977303e-14 3.618412e-12 4.1188851e-13 2.2494202e-14 -2.71086e-16
-4.7213683e-12 -4.6516384e-12 4.342468e-11 1.9494871e-13 -8.566284e-14 2.0148276e-14 1.2108885e-11 1.3728827e-11
-8.0733055e-14 -7.539578e-12 2.7167984e-12 -1.784831e-11 -4.5565446e-21 -4.8033174e-25 5.3448146e-27 -1.2325494e-21
2.0504334e-25 -1.960472e-23 -2.43626e-22 -1.9570207e-24 4.282847e-22 1.0609075e-24 -1.49243e-21 7.0094086e-22
8.025303e-25 -7.434787e-24 1.784682e-22 -1.3174389e-23 -7.081001e-23 -1.227484e-21 2.818765e-22 6.8510406e-22
-5.498548e-22 -6.7368885e-23 6.74167e-22 -6.164616e-09 8.479162e-23 3.0449551e-22 -1.0160601e-21 -3.276004e-21
-7.5416194e-23 4.5444494e-08 1.1740119e-27 -1.974376e-24 -1.1863818e-14 3.8585896e-21 -1.4058119e-20 2.4597447e-21
00000000: 0632 49ae 34b7 9e28 ead9 62a5 2b05 baad
00000010: 7671 fea9 81fe 6f23 243a 4e31 4fc3 612a
00000020: e51d 0bae 2014 8e29 4755 912d d65c ca2d
00000030: b4e5 f1ab cac5 daaa c0b7 eaac af62 3eab
00000040: 6286 b22a a6af 352f add1 f6ad d35d 23b5
00000050: 38dd 102e 0d06 992c e672 f42b 0025 262c
00000060: 8c2e 4b2c 8bb9 c5ad 56bb 7bae b2de 642e
00000070: 2824 682a 9c0a 1dac 07b6 b622 3a4e 0929
00000080: 7808 5828 031b 5a2f 8069 a02c 43cf 612f
00000090: 3643 19ac f06b e62d c946 2daf dca3 112e
000000a0: 00da 2ca7 3678 522b 5d6c b32e 4e2d 0f2d
000000b0: 880f cd2a 798a b3ad b062 aba8 ce71 bfb6
000000c0: 43e8 06aa 834c c6ab 7c0e 96ab b9ee 3b2f
000000d0: fa3d 372e ac66 63ad 1c43 86ac 7858 2cad
000000e0: 0227 7f2e 600b b424 c6c0 f8ac ca7a f5a9
000000f0: 2803 2529 b1e5 96ae b8c2 5eae f81d 332a
00000100: d433 b12e 6979 dd2c 6b84 19ac b8b6 47ac
00000110: 5420 35b6 3c7c 832b b6da 1cae 022e 93b4
00000120: 63e2 f0ab 2489 e3a6 8acc f4aa 67c0 052e
00000130: 409c 312c 6181 2d37 a07d 4fae fc0c a72b
00000140: c691 3d2c a35a 232c b03f 0cad 6d5d 3f2c
00000150: 44ae 1933 1750 4eab 50a4 e528 4ba0 1bab
00000160: 7c48 9327 00ad af29 887b aaab a695 f62a
00000170: ab75 e1ac dc5f 9ea8 10ad ef27 2485 cb28
00000180: 72ed d2ab 6858 4d2b 039e 172c a041 afac
00000190: d44a af2a 6751 3e2c 84ca 782a b106 422c
000001a0: f44d 66a5 1582 832b 812a 0bae a57c 532a
000001b0: cc5f 532a fa21 a52c 4ca2 fba0 6a73 3dad
000001c0: 7eec 7aaf 8dbf 2ba8 8a78 5ba7 9962 1c30
000001d0: 940f 332f 87a6 c0a9 1575 e22d 26d3 2b2d
000001e0: 1b4f 2d2f 36b3 afad 5c5f 8dab 6bdf 8bae
000001f0: 8410 8ea0 e8e0 1e2b ecd4 eea5 ac42 c22c
00000200: 74f6 0e34 5286 2433 3c1b 232d 0330 2b2f
00000210: 2e82 96ad 7405 91ae a99d d922 9097 fda9
00000220: 2ce4 202f 9080 cf2c 68de 002f 1347 292f
00000230: 5d7b c72c ae9c f52e 6d75 9a24 ece4 812b
00000240: db10 b0ad cd10 40af 6242 53a8 6980 04b2
00000250: cb8b d826 24df 5fad d67c 4faf 2253 572b
00000260: 4c65 fbab 5037 f835 b5b2 b92e 07fe b527
00000270: d64f 8cae 0e3e 92ae de6d f22d f74a db2c
00000280: 27ea 262e deff 262e 45fb ada3 6313 1631
00000290: 72b1 ecae 90bf a6a6 d836 e5ab 0c1e 1933
000002a0: 7678 1a2e 80b5 95ae 2214 33ad 501e b6a3
000002b0: 55d8 e62d 9549 1cad 9aba 6e36 d4b9 9fa3
000002c0: 701d a1ac 8021 eeab e276 d22d e06c 6faa
000002d0: e637 f12d d36f 82a9 94ef 78ad f4bd 65a4
000002e0: 1001 a4aa d3c2 292d 5683 862c f5f9 b62b
000002f0: 48cb 0c2d 7099 baab f056 922b b0fd 942d
00000300: 578d 2f2b 6a60 022d 8447 c22c d34f b62c
00000310: 0215 6d2b 0076 7526 6206 9fa8 b058 ccb4
00000320: 76e9 2b2c 5e09 1f2b 8880 7b27 9d8b 38a9
00000330: 849f 7e2c 64df e72a 199c ca28 3c45 9ca5
00000340: 4e1e a6ac 3caa a3ac d8fb 3e2e 247e 5b2a
00000350: 44e5 c0a9 c37a b528 9205 552d 2485 712d
00000360: 70cb b5a9 3ea3 04ad 7d2d 3f2c d2fe 9cad
00000370: 3224 ac9d cda7 1497 dcba d313 f241 ba9c
00000380: d4d4 7d16 f09a bd99 4c43 939b ca6a 1798
00000390: ec70 011c e02a a417 9787 e19c acd8 531c
000003a0: 005f 7817 48cf 0f99 3cc1 571b 6ad4 7e99
000003b0: 4635 ab9a fd7d b99c 4762 aa1b 5c0f 4f1c
000003c0: f42e 269c 52e3 a29a 25c1 4b1c 89d0 d3b1
000003d0: 7803 cd1a 660e b81b ec8a 999c 2287 779d
000003e0: 5d58 b69a c02e 4333 9507 ba12 8cc2 1898
000003f0: 34b8 55a8 fdc5 911d 72c6 849e 62da 391d
