MDOF_linear_bridge/DL_data/DNN_displ_wotime.pt (torch, 66316 bytes, 58 tensors)

bn1.weight f4 [14]
0.09165325 0.07272277 -0.00224174 0.026546158 0.044943847 0.04185787 -0.0003483154 -0.004361605
0.032484572 0.0023349444 0.0032860124 0.0024017321 0.004717594 0.082362786
00000000: b3b4 bb3d adef 943d 28ea 12bb 5477 d93c
00000010: 0a17 383d 2873 2b3d 1a9e b6b9 cbeb 8ebb
00000020: 8b0e 053d de05 193b 245a 573b 6166 1d3b
00000030: 0c96 9a3b d2ad a83d

bn1.bias f4 [14]
0.0033463235 -0.0043845666 0.00017583295 -0.0039992565 0.0028798669 -0.0024748899 8.805583e-05 -0.0001251593
-0.00011597089 -0.00042691492 -0.0010092731 -0.0004464503 -0.0018375424 -0.0039152713
00000000: fe4d 5b3b 69ac 8fbb cc5f 3839 320c 83bb
00000010: 26bc 3c3b c331 22bb 9daa b838 323d 03b9
00000020: 6635 f3b8 8dd3 dfb9 9649 84ba 8c11 eab9
00000030: b1d9 f0ba ad4b 80bb

bn1.running_mean f4 [14]
-0.74631184 -1.3555324 -1.9286282 -2.3277462 -0.6734662 -0.84633696 -8.333939 -3.4108238
-4.0771184 -4.0771184 -3.7787454 -3.467044 4.785032 0.5149454
00000000: 4b0e 3fbf 1682 adbf 4add f6bf cbf9 14c0
00000010: 4868 2cbf 8aa9 58bf d057 05c1 f04a 5ac0
00000020: c177 82c0 c177 82c0 f7d6 71c0 0de4 5dc0
00000030: fb1e 9940 76d3 033f

bn1.running_var f4 [14]
0.25159848 0.11261033 0.120511435 0.14554669 0.0042787525 0.0048641795 5.2397494 0.116850086
0.66686 0.66686 0.6807886 0.706512 1.167161 0.08076974
00000000: 84d1 803e 3fa0 e63d b3ce f63d 310a 153e
00000010: c734 8c3b b263 9f3b 07ac a740 194f ef3d
00000020: 56b7 2a3f 56b7 2a3f 2948 2e3f f8dd 343f
00000030: 8865 953f 9b6a a53d

fc1_1.weight f4 [16, 14]
7.29457e-40 -2.1427e-40 5.047492e-39 8.56279e-40 -1.29458e-40 -9.41967e-40 1.175396e-38 -1.7632e-39
-5.91574e-40 -2.3935125e-38 -9.058963e-39 1.2028382e-38 -9.32678e-40 -9.26438e-40 2.81056e-40 -6.14453e-40
-6.90945e-40 7.29108e-40 1.092343e-39 -5.80262e-40 7.18254e-40 8.33536e-40 -8.59943e-40 -1.08038e-39
-1.33373e-40 1.151792e-39 9.18644e-40 4.35075e-40 -0.02095279 0.015990965 0.008108013 -0.006011742
-0.008792508 -0.012313115 -8.9732486e-05 0.005133056 -0.004182889 -0.002718424 -0.0051925373 -0.0033646526
-0.008028428 -0.087284125 2.79108e-40 -6.16803e-40 1.54632e-40 5.81874e-40 -6.09517e-40 -5.6184e-40
4.50588e-40 4.56275e-40 4.51e-42 -1.0588e-40 -1.39681e-40 2.66676e-40 6.89583e-40 1.117143e-39
0.04251386 -0.052821282 -0.002334116 0.019515097 0.00073907303 0.043507557 0.00088208204 0.00520152
0.00018634684 0.00039802905 0.00082578976 -0.0002770715 0.011634079 0.015446195 4.4592844e-24 -1.922099e-26
2.941103e-10 1.2189289e-24 2.2964445e-24 -7.7982465e-25 1.9218379e-26 5.842245e-26 1.4307082e-24 7.320278e-26
-1.0208348e-25 -5.373442e-26 1.1045055e-24 1.3172426e-23 -3.44321e-40 -3.59066e-40 -2.25291e-40 -5.08301e-40
-1.32194e-40 1.72906e-40 -4.55168e-40 -1.66932e-40 4.56431e-40 2.57105e-40 2.8608e-41 2.18433e-40
-1.03868e-40 5.17309e-40 -0.08037484 0.04887548 0.0050132815 0.0051551578 0.009611705 -0.010494049
1.2316947e-05 -0.00012000496 -0.0053225784 0.0010329224 -0.0032855505 0.0025568113 -0.0061755087 0.025249932
-2.91781e-40 3.7165e-40 -5.29982e-40 -9.77445e-40 1.50921e-40 -6.912e-41 7.66807e-40 -1.053254e-39
-1.132719e-39 5.04488e-40 1.89601e-40 1.012067e-39 1.22161e-40 1.6486e-40 0.04593388 -0.037255418
0.0028569754 -0.021281127 0.06106299 -0.03347729 -0.0006278287 0.0011027269 -0.021364655 0.0007766466
0.0014012766 -0.00054816145 -0.0030541823 0.0008152161 9.13041e-40 1.033438e-39 2.8865e-40 2.02028e-40
1.160759e-39 -7.5865e-40 4.36398e-40 -3.37996e-40 -3.3569e-40 -1.173143e-39 -1.329154e-39 -8.7643e-40
4.64368e-40 3.22953e-40 4.73715e-40 1.59972e-40 -1.60698e-40 -2.79189e-40 4.56502e-40 -5.14571e-40
-3.08167e-40 -3.07336e-40 -8.26562e-40 -7.79816e-40 -3.92066e-40 3.69374e-40 -9.5095e-41 -8.31675e-40
-8.55247e-40 -9.90226e-40 -1.79869e-40 7.3548e-40 8.21144e-40 -5.29873e-40 4.43947e-40 -2.44723e-40
-9.57705e-40 -2.98299e-40 -6.29514e-40 -1.0033e-41 -3.82833e-40 -4.82204e-40 2.805479e-12 9.550042e-13
4.4817978e-05 -1.1304358e-13 1.8401188e-13 8.255744e-13 -2.7498975e-14 4.62573e-13 -7.8454897e-13 -9.348474e-13
-1.1179987e-12 -1.7820601e-12 -2.9613478e-14 2.9489102e-12 -1.036308e-39 7.5645e-41 -3.25002e-40 -1.28065e-40
1.08607e-39 -3.62139e-40 -2.2422e-40 8.06482e-40 8.5034e-40 -1.006424e-39 5.29842e-40 6.68059e-40
-5.55215e-40 3.67052e-40 -0.012443728 -0.026497085 -0.0001920652 -0.031622827 -0.009170018 0.0041493103
-0.00010348878 0.00061478314 0.047711495 -0.0035198906 -0.0014746824 -0.004993179 -0.008661477 -0.026934313
00000000: 6ef1 0700 4c55 0280 5bf6 3600 f552 0900
00000010: e068 0180 d241 0a80 42fd 7f00 1633 1380
00000020: 1171 0680 b250 0281 b4a4 6280 3cfa 8200
00000030: ed27 0a80 8816 0a80 780f 0300 d8b0 0680
00000040: 1386 0780 75f0 0700 02e5 0b00 8951 0680
00000050: 33d2 0700 8f13 0900 2c5d 0980 a9c3 0b80
00000060: ca73 0180 ba8a 0c00 ce00 0a00 d0bc 0400
00000070: 2fa5 abbc 7cff 823c 79d7 043c 26fe c4bb
00000080: 740e 10bc f3bc 49bc c32e bcb8 3233 a83b
00000090: 9e10 89bb 9627 32bb 2926 aabb 8181 5cbb
000000a0: ab89 03bc 05c2 b2bd 0a0a 0300 65b7 0680
000000b0: 0daf 0100 0756 0600 16a3 0680 2e1e 0680
000000c0: 0ee8 0400 e9f7 0400 920c 0000 2627 0180
000000d0: 6085 0180 62e7 0200 4782 0700 242a 0c00
000000e0: 0323 2e3d 215b 58bd f8f7 18bb 20de 9f3c
000000f0: 5abe 413a fb34 323d 863b 673a 8371 aa3b
00000100: 1966 4339 8eae d039 d079 583a e843 91b9
00000110: dd9c 3e3c 0a12 7d3c 9d82 ac18 005b be94
00000120: 58b0 a12f c09e bc17 c5ad 3118 1358 7197
00000130: 6154 be14 a0a5 9015 3164 dd17 c63d b515
00000140: 18bf fc95 3c0a 8595 f8e9 aa17 b2ca 7e19
00000150: d4bf 0380 eee8 0380 0574 0280 f088 0580
00000160: 8170 0180 fee1 0100 d3f4 0480 57d1 0180
00000170: 58f8 0400 b4cc 0200 bf4f 0000 e760 0200
00000180: 8b21 0180 0ca2 0500 909b a4bd a831 483d
00000190: 7446 a43b 99ec a83b 6a7a 1d3c 3bef 2bbc
000001a0: e2a4 4e37 2cab fbb8 0669 aebb 2063 873a
000001b0: 6452 57bb 2d90 273b ec5b cabb f2d8 ce3c
000001c0: 5e2d 0380 020c 0400 60c5 0580 b8a4 0a80
000001d0: b5a4 0100 aec0 0080 8c59 0800 0b78 0b80
000001e0: 8f55 0c80 4f7e 0500 8810 0200 3b05 0b00
000001f0: 8954 0100 90cb 0100 2a25 3c3d 2399 18bd
00000200: 183c 3b3b c255 aebc 301d 7a3d 7c1f 09bd
00000210: df94 24ba 6089 903a ee04 afbc df97 4b3a
00000220: 0aab b73a 7eb2 0fba ad28 48bb 3ab4 553a
00000230: 30f1 0900 ce40 0b00 a424 0300 2c33 0200
00000240: b9a3 0c00 cf42 0880 80c0 0400 32ae 0380
00000250: c4a7 0380 3fc6 0c80 2479 0e80 218b 0980
00000260: 780e 0500 4384 0300 8628 0500 f0bd 0100
00000270: f6bf 0180 440a 0380 8bf8 0400 6a9a 0580
00000280: 0b5b 0380 ba58 0380 1e00 0980 cf7d 0880
00000290: ec44 0480 aa05 0400 1609 0180 5f0e 0980
000002a0: 1550 0980 59c8 0a80 67f5 0180 3802 0800
000002b0: 04f1 0800 12c5 0580 8bd5 0400 30aa 0280
000002c0: b16d 0a80 893f 0380 d4da 0680 f81b 0080
000002d0: 2f2b 0480 3040 0580 046b 452c a767 862b
000002e0: f0fa 3b38 308d fea9 d02d 4f2a e860 682b
000002f0: 52b0 f7a8 e633 022b b6d4 5cab 6d91 83ab
00000300: 2658 9dab 7bcd faab 045e 05a9 d882 4f2c
00000310: ce48 0b80 ded2 0000 f989 0380 fe64 0180
00000320: 85d3 0b00 7ff1 0380 0971 0280 25c8 0800
00000330: 6742 0900 80f5 0a80 fcc4 0500 4746 0700
00000340: b70b 0680 31ff 0300 c7e0 4bbc 6a10 d9bc
00000350: 1c65 49b9 f086 01bd d83d 16bc f0f6 873b
00000360: 1e08 d9b8 6629 213a 216d 433d f7ad 66bb
00000370: 214a c1ba d29d a3bb dee8 0dbc 59a5 dcbc

fc1_1.bias f4 [16]
-7.64532e-40 -7.50454e-40 -0.00036227287 -8.0501e-40 0.013651021 1.0058353e-23 -3.46638e-40 -0.0001228159
-6.56504e-40 0.008131819 -1.062557e-39 -1.397759e-39 -2.98429e-40 6.8340264e-12 -5.01223e-40 0.02264452
00000000: 3453 0880 f62b 0880 71ef bdb9 0ac4 0880
00000010: 88a8 5f3c 8d8e 4219 49c6 0380 24c8 00b9
00000020: 1126 0780 523b 053c fa91 0b80 6238 0f80
00000030: e63f 0380 7073 f02c 3575 0580 0081 b93c

bn2.weight f4 [16]
-4.27964e-40 5.09934e-40 0.05296649 -8.23472e-40 0.063142836 -4.543245e-19 -1.7954e-40 0.056973364
-1.3207e-40 0.071046405 9.22699e-40 4.25642e-40 -3.80681e-40 2.7542981e-09 -4.8919e-40 0.05149482
00000000: fda8 0480 7d8d 0500 64f3 583d 81f7 0880
00000010: 0851 813d ca17 06a1 7cf4 0180 e75c 693d
00000020: 2870 0180 c780 913d 1c0c 0a00 84a2 0400
00000030: 2f25 0480 2046 3d31 aa53 0580 3bec 523d

bn2.bias f4 [16]
-0.00018953028 -9.340955e-08 0.0064422237 2.7767475e-13 -0.0012480108 5.4384204e-09 1.1602535e-08 -0.0039372873
-1.1115426e-11 0.006299327 -5.9793344e-09 -7.971572e-07 -5.3126195e-07 -1.0863717e-05 -3.763024e-08 0.0014555294
00000000: a6bc 46b9 7198 c8b3 4a19 d33b 2651 9c2a
00000010: 4b94 a3ba dadc ba31 7d54 4732 5c04 81bb
00000020: 6e8b 43ad 966a ce3b c872 cdb1 3afc 55b5
00000030: 0b9c 0eb5 4f43 36b7 e39e 21b3 76c7 be3a

bn2.running_mean f4 [16]
6e-45 6e-45 0.0027953056 6e-45 0.013931483 8.264904e-14 6e-45 0.0022302947
6e-45 0.009991059 6e-45 6e-45 4.04e-43 4.6321638e-08 6e-45 0.023519835
00000000: 0400 0000 0400 0000 7231 373b 0400 0000
00000010: e040 643c ee1b ba29 0400 0000 232a 123b
00000020: 0400 0000 8ab1 233c 0400 0000 0400 0000
00000030: 2001 0000 2ef3 4633 0400 0000 abac c03c

bn2.running_var f4 [16]
6e-45 6e-45 1.12871985e-05 6e-45 9.294748e-06 2.4822437e-26 6e-45 8.264582e-06
6e-45 1.9351302e-05 6e-45 6e-45 6e-45 5.9745503e-15 6e-45 2.0521979e-05
00000000: 0400 0000 0400 0000 265e 3d37 0400 0000
00000010: a4f0 1b37 5bd4 f514 0400 0000 1ca8 0a37
00000020: 0400 0000 9b54 a237 0400 0000 0400 0000
00000030: 0400 0000 8041 d727 0400 0000 9d26 ac37

fc1_2.weight f4 [16, 16]
3.9099814e-06 -5.646349e-08 -0.0047836346 7.042922e-10 -0.0017720328 7.7002795e-09 -4.5156243e-09 0.0016940174
-6.7574946e-11 0.0066119055 -7.8482035e-06 -2.0361742e-07 5.5763094e-06 -1.8104784e-06 4.547099e-07 -0.00043165428
1.3845769e-15 -3.185059e-10 3.0267653e-21 -1.5396227e-35 -1.8403342e-19 1.4081843e-07 1.5219753e-30 4.2180067e-19
8.3320937e-13 -4.4976907e-19 -1.3952629e-34 5.3035258e-08 8.221012e-07 -1.1294158e-27 -1.2120086e-12 -9.6470747e-20
3.050347e-05 -2.698782e-08 -0.005607679 9.56119e-13 0.0074099125 6.8012675e-08 9.203816e-09 -0.0070539797
1.3434986e-11 -0.009288017 -6.213989e-05 -1.2190648e-06 -5.6752936e-07 1.1970409e-05 -6.9701764e-07 0.0051569594
-1.2853856e-09 2.5267803e-07 -3.1092891e-21 2.409744e-13 3.5912313e-21 -2.82355e-07 -1.4322632e-09 2.350506e-21
-4.4608514e-16 -5.999691e-22 -1.0605691e-17 -2.5377985e-14 -1.7281359e-13 3.3714884e-12 -2.4046759e-07 3.8985325e-21
0.00010709161 1.8354142e-05 -3.6209727e-05 1.67546e-11 8.754709e-06 -1.4331129e-06 3.035915e-06 -3.1791395e-05
5.6110325e-09 -0.00018492728 4.0776666e-07 0.000111622394 7.143397e-05 0.0003192048 -6.297724e-05 5.7068784e-05
-5.294929e-16 -4.057182e-06 1.3678928e-30 -4.107293e-16 -8.845822e-30 -1.0294994e-07 1.5263677e-13 1.6828283e-30
6.761311e-07 -4.810174e-30 -2.036364e-06 -6.8133005e-07 -1.5937085e-12 -2.1197813e-12 2.7172428e-06 -7.230863e-30
-3.7715192e-10 1.0666703e-10 4.6516235e-09 6.035607e-14 1.2051936e-08 -1.1933913e-09 -1.4311875e-14 6.4101853e-09
-1.3659222e-15 -8.590555e-09 -3.990688e-08 -3.4082331e-10 -2.3299624e-13 -1.32298466e-08 -4.1230603e-14 2.0626678e-09
-0.00047219434 1.1079931e-07 -0.0073794643 1.8188911e-14 0.07021464 -6.461784e-09 9.95168e-09 -0.05265001
1.3287554e-11 -0.07366381 2.628737e-10 9.311932e-07 4.840845e-07 1.1158747e-05 -6.393015e-08 0.000458594
7.22886e-40 6.45235e-40 6.5089e-40 2.28168e-40 4.075e-41 -4.63307e-40 4.41828e-40 -1.239597e-39
-6.22427e-40 -6.29229e-40 9.4164e-41 -4.45229e-40 -4.2528e-40 -6.42044e-40 5.71102e-40 -6.98309e-40
2.3824682e-06 -4.154765e-12 -0.0038859611 4.096274e-18 0.01584059 1.4102868e-13 2.290785e-13 -0.032862056
5.6413654e-16 0.021282988 9.404975e-14 2.8887836e-12 2.7583626e-11 8.5279346e-11 1.6113678e-13 -0.0525291
-5.1248024e-16 -1.8346339e-14 1.7196742e-24 -1.7282216e-12 4.932184e-24 -2.8571194e-14 1.645133e-08 -9.645046e-24
-5.083526e-06 -5.635228e-25 -1.5840322e-15 3.7211884e-10 9.353179e-06 1.3514743e-08 -4.57125e-13 -4.8849454e-23
-7.2452254e-05 7.027851e-09 -0.0011296262 -1.6894549e-13 0.0010211072 1.326407e-10 3.9204097e-06 0.0025607524
7.899343e-12 0.00079754775 -2.989725e-14 -1.1393249e-05 4.5036597e-10 -4.6479154e-06 1.9915817e-08 -0.0002772072
4.490678e-11 4.767974e-09 1.4629201e-24 2.6522252e-07 7.2091484e-25 1.3467718e-16 4.597996e-08 -4.840266e-25
3.945527e-14 2.0097762e-25 3.290701e-15 1.9964421e-14 -6.1051086e-14 8.6922364e-07 2.4246176e-14 1.4933285e-25
3.6493257e-06 -4.3120413e-05 1.2548558e-30 1.0642257e-12 -4.178718e-30 5.8481124e-23 -2.7158192e-10 -1.1254894e-29
-6.520686e-16 2.80703e-30 -1.0836522e-11 -1.930317e-05 2.8894807e-09 5.1401896e-14 -2.1421798e-10 -3.42151e-30
-1.117785e-39 -1.246377e-39 -8.6813e-41 5.751e-42 2.33596e-40 -1.016089e-39 -5.60993e-40 -6.78405e-40
-1.3188e-41 -9.839e-41 5.68786e-40 6.09719e-40 7.71706e-40 3.70206e-40 -6.35977e-40 -1.38659e-39
-5.245026e-07 -7.887666e-13 0.059234746 4.6333736e-18 0.01580455 -2.5969622e-14 2.3799444e-13 -0.027152866
2.171594e-17 0.019077152 -3.656331e-14 4.6382577e-12 -1.6889483e-11 1.5353782e-10 1.0900096e-12 0.03552704
00000000: 7c32 8336 4482 72b3 09c0 9cbb 2898 4130
00000010: 8e43 e8ba 304a 0432 da27 9bb1 cb09 de3a
00000020: 5099 94ae afa8 d83b c7ab 03b7 eea1 5ab4
00000030: 221c bb36 90ff f2b5 da1e f434 a84f e2b9
00000040: df89 c726 b819 afaf 28b2 641d 84b8 a385
00000050: b044 59a0 e033 1734 61f4 f60d b7fc f820
00000060: 1087 6a2b 97bf 04a1 5676 3987 e2c8 6333
00000070: 5dae 5c35 8cf6 b292 3693 aaab fdc8 e39f
00000080: b4e1 ff37 d8d2 e7b2 9fc0 b7bb d18f 862b
00000090: dace f23b 5d0e 9233 d01e 1e32 1225 e7bb
000000a0: cc59 6c2d c42c 18bc 1951 82b8 bf9e a3b5
000000b0: 5258 18b5 84d4 4837 b01a 3bb5 b6fb a83b
000000c0: 7ca9 b0b0 cea7 8734 66ee 6a9d 12a8 872a
000000d0: 42ac 871d 9396 97b4 48d9 c4b0 6699 311d
000000e0: 4693 00a6 5c54 359c f6a3 43a3 a695 e4a8
000000f0: 2092 42aa 563f 6d2c 9d19 81b4 4b48 931d
00000100: 5f96 e038 38f7 9937 e6df 17b8 0160 932d
00000110: 30e1 1237 6259 c0b5 9fbc 4b36 c057 05b8
00000120: 2acb c031 0ae9 41b9 06eb da34 d116 ea38
00000130: d2ce 9538 f15a a739 a612 84b8 245d 6f38
00000140: ae9d 18a6 ee22 88b6 0bf4 dd0d f2c4 eca5
00000150: 226a 338f 5415 ddb3 8eda 2b2a fa86 080e
00000160: 607f 3535 b41f c38e 78a8 08b6 a5e4 36b5
00000170: 664b e0ab 962a 15ac e059 3636 caa8 128f
00000180: 6a57 cfaf 3390 ea2e 1dd4 9f31 e8e8 8729
00000190: fa0c 4f32 b904 a4b0 f0e8 80a8 9640 dc31
000001a0: a2d9 c4a6 a995 13b2 1466 2bb3 9e5e bbaf
000001b0: 4c2a 83aa 7b49 63b2 a6af 39a9 d6be 0d31
000001c0: da90 f7b9 91f0 ed33 6fcf f1bb c6d4 a328
000001d0: b1cc 8f3d 7406 deb1 f4f7 2a32 89a7 57bd
000001e0: d3c1 692d 0ddd 96bd 2f84 902f 1cf7 7935
000001f0: 09f2 0135 7436 3b37 f949 89b3 726f f039
00000200: 1ddf 0700 a706 0700 6b16 0700 0a7c 0200
00000210: 9871 0000 830b 0580 a3cf 0400 7e7f 0d80
00000220: 13c7 0680 09da 0680 7e06 0100 1ed9 0480
00000230: 82a1 0480 c2fd 0680 0038 0600 9a9a 0780
00000240: 7ee2 1f36 cc2e 92ac 9cab 7ebb 3720 9722
00000250: 20c4 813c c0c8 1e2a b1f5 802a 5d9a 06bd
00000260: ee99 2226 a959 ae3c fdc7 d329 b347 4b2c
00000270: cea0 f22d 0188 bb2e 846c 352a c128 57bd
00000280: 5eb6 13a6 c73f a5a8 a80d 0518 bf39 f3ab
00000290: fccd be18 58ac 00a9 db50 8d32 f48f 3a99
000002a0: 2893 aab6 e066 2e97 7948 e4a6 1293 cc2f
000002b0: 99eb 1c37 782e 6832 54ab 00ab b238 6c9a
000002c0: 82f1 97b8 a279 f131 f70f 94ba 3937 3eaa
000002d0: acd6 853a 0ad7 112f 108c 8336 4cd2 273b
000002e0: 7af7 0a2d 8612 513a 2fa5 06a9 a225 3fb7
000002f0: 6097 f72f 4af5 9bb6 5813 ab32 1f56 91b9
00000300: 8a80 452e 8bd3 a331 3c60 e217 e863 8e34
00000310: c21c 5f17 b045 1b25 807b 4533 8acc 1597
00000320: d4b0 3129 5acc 7816 b81e 6d27 d2d2 b328
00000330: 8e79 89a9 9854 6935 e063 da28 78dd 3816
00000340: f0e6 7436 31dc 34b8 ac9c cb0d c6c6 952b
00000350: 4a82 a98e 1066 8d1a c24d 95af c046 648f
00000360: 2cf2 3ba6 bbbb 630e 5ba3 3ead 3eed a1b7
00000370: 4890 4631 5a7e 6729 0089 6baf feca 8a8e
00000380: ee2b 0c80 6492 0d80 00f2 0080 0810 0000
00000390: 2c8b 0200 7110 0b80 d21b 0680 1e63 0780
000003a0: c324 0080 4512 0180 8b31 0600 a6a3 0600
000003b0: 3467 0800 fc07 0400 d8ec 0680 4019 0f80
000003c0: 8bcb 0cb5 a004 5eab 22a0 723d faf0 aa22
000003d0: 8b78 813c dfe9 e9a8 9dfa 852a b06f debc
000003e0: 504b c823 b047 9c3c a0aa 24a9 b631 a32c
000003f0: bc8f 94ad 0ed1 282f bc67 992b cd84 113d

fc1_2.bias f4 [16]
0.006965829 8.357464e-25 0.0056720455 -7.5996495e-27 -0.0003127393 -1.17638695e-35 -1.3261889e-08 -0.006063574
-5.28503e-40 0.030945115 -2.8920974e-29 -0.006660832 -3.2319166e-30 5.047387e-35 -6.86059e-40 0.02633087
00000000: 9c41 e43b 5353 8117 91dc b93b cd86 1694
00000010: 29f7 a3b9 9930 7a85 68d6 63b2 f2b0 c6bb
00000020: 40c1 0580 9c80 fd3c 92a5 1290 1c43 dabb
00000030: 241a 838e bc2e 8606 7478 0780 d6b3 d73c

bn3.weight f4 [16]
0.001225246 2.9392357e-11 -0.010604315 -1.2870788e-20 6.9651156e-05 -3.56326e-26 -1.2137659e-08 0.07572147
-5.09991e-40 0.064013734 3.3595472e-21 -0.00046700868 7.877043e-19 -2.0586054e-23 -1.73796e-40 0.07349458
00000000: 6f98 a03a da44 012e b9bd 2dbc 501f 739e
00000010: ae11 9238 b071 3095 fd85 50b2 dc13 9b3d
00000020: a68d 0580 a219 833d 18d7 7d1d d8d8 f4b9
00000030: 417d 6821 9a18 c799 79e4 0180 5484 963d

bn3.bias f4 [16]
0.0005352596 7.722559e-11 -8.318379e-05 9.5337946e-08 -4.174442e-05 -3.7601012e-08 -0.0005018312 0.012965015
1.48649015e-05 -0.0050557614 1.0782423e-06 8.223289e-05 -6.1365313e-10 -8.843935e-11 -0.00016059238 -0.010220552
00000000: aa50 0c3a 24d2 a92e f572 aeb8 97bc cc33
00000010: bb16 2fb8 c07e 21b3 528d 03ba 376b 543c
00000020: 4464 7937 cdaa a5bb 20b8 9035 7274 ac38
00000030: 00ae 28b0 ee7a c2ae b064 28b9 1a74 27bc

bn3.running_mean f4 [16]
0.0065050875 2.31522e-13 0.008058189 3.9441372e-13 0.00013306599 6.546073e-13 4.1174257e-08 0.000459177
6e-45 0.03158692 2.520821e-12 7.656906e-06 2.2987036e-11 1.0733511e-09 6e-45 0.027210614
00000000: a128 d53b d655 822a 7f06 043c 0209 de2a
00000010: a187 0b39 6d41 382b 93d7 3033 b2bd f039
00000020: 0400 0000 4961 013d 1363 312c 2976 0037
00000030: 3432 ca2d 2f85 9330 0400 0000 cbe8 de3c

bn3.running_var f4 [16]
7.487537e-07 1.2122554e-36 2.1925332e-06 7.924262e-34 9.510718e-11 3.3088918e-35 6.925764e-19 2.787436e-06
6e-45 1.3628463e-05 1.4588543e-34 6.2517427e-09 8.3912576e-33 1.5129902e-28 6e-45 1.3925541e-05
00000000: f6fd 4835 2b41 ce03 6f23 1336 15aa 8308
00000010: 9524 d12e 4dee 2f06 9869 4c21 c90f 3b36
00000020: 0400 0000 cea5 6437 3dea 4107 e9ce d631
00000030: 9447 2e0a 57cb 3f11 0400 0000 bea1 6937

fc1_3.weight f4 [8, 16]
1.914624e-06 -1.352954e-06 9.863445e-07 1.701444e-08 -1.2549581e-05 -9.694057e-11 6.5289214e-09 -1.7452692e-06
-5.073572e-09 -1.0795111e-06 -2.5711394e-10 1.8834239e-06 1.52014e-09 -2.660847e-12 -1.7158308e-07 -1.1664217e-06
-0.0068699624 6.9192417e-16 -0.006771932 -1.2347455e-06 0.00025906166 -2.1383379e-08 0.0001716667 0.07760093
3.614432e-06 -0.024691675 1.20115e-06 -0.001485345 4.267952e-10 -6.0720054e-11 -0.00018241216 -0.044757843
6.742163e-06 9.525734e-12 -4.9013495e-11 -3.7615056e-05 -3.3640224e-13 3.684921e-05 1.3394368e-08 -1.4758862e-13
1.1296681e-08 5.83183e-13 3.2056988e-09 2.37343e-11 2.7359312e-15 6.8271495e-09 9.5975965e-06 -2.0947659e-13
-0.004565087 -1.6886107e-16 0.008915268 -4.525419e-08 -2.3565677e-05 -1.6105721e-08 -5.165129e-05 -0.024583342
1.6971077e-05 -0.04827368 -2.8740232e-07 8.8576635e-06 5.73026e-11 -1.3488694e-11 -0.0002708108 -0.032513
2.57323e-40 6.47352e-40 4.05665e-40 7.65735e-40 -7.3544e-41 4.10132e-40 -7.00438e-40 1.57237e-40
-1.04636e-40 9.6895e-40 -9.5195e-40 -5.74417e-40 -1.136544e-39 1.5822e-40 -7.19165e-40 6.19821e-40
0.003370787 1.6280705e-12 0.018129617 1.4446941e-07 1.6977065e-06 -1.890356e-10 -5.7938778e-05 -0.0019901828
-2.5774474e-05 0.049215518 4.6997633e-07 -0.00049461087 3.9291383e-12 -7.71521e-13 -5.6547582e-05 -0.058081113
0.00038621153 2.0938319e-11 -0.00017341762 -2.0718439e-08 4.1331796e-06 4.035836e-08 4.274347e-05 0.0013530703
4.0478835e-06 -0.0022101232 6.7828864e-08 -5.293316e-07 3.162646e-08 -1.4997286e-06 9.218664e-06 -5.2231684e-05
8.6369e-40 9.5538e-40 -2.93545e-40 -1.36751e-39 7.5317e-41 -5.85835e-40 7.3329e-41 3.38733e-40
4.15049e-40 -5.90708e-40 5.46057e-40 8.1924e-41 3.3082e-41 -7.5333e-40 5.17575e-40 2.60182e-40
00000000: fd7c 0036 2597 b5b5 8a62 8435 2627 9232
00000010: 0a8c 52b7 b02c d5ae 0055 e031 fe3e eab5
00000020: 9c53 aeb1 b8e3 90b5 9259 8daf f4c9 fc35
00000030: 2ced d030 8f3d 3bac 663c 38b4 f28d 9cb5
00000040: 6c1d e1bb fe6e 4726 15e7 ddbb 88b9 a5b5
00000050: abd2 8739 8cae b7b2 6e01 3439 3ded 9e3d
00000060: 788f 7236 3246 cabc 3337 a135 e8af c2ba
00000070: 16a2 ea2f 5a86 85ae e445 3fb9 0054 37bd
00000080: bd3a e236 1894 272d 4a90 57ae dcc4 1db8
00000090: ac60 bdaa 8a8e 1a38 0e1d 6632 862b 26aa
000000a0: 5413 4232 c426 242b 404b 5c31 e4c4 d02d
000000b0: 0625 4527 3e94 ea31 5d05 2137 84d9 6baa
000000c0: ba96 95bb feae 42a5 5811 123c 825d 42b3
000000d0: e8ae c5b7 db58 8ab2 26a4 58b8 0163 c9bc
000000e0: 1c5d 8e37 9fba 45bd 464c 9ab4 609b 1437
000000f0: fe04 7c2e ad4b 6dad 9cfb 8db9 5a2c 05bd
00000100: 50cd 0200 8e0c 0700 d46a 0400 8f56 0800
00000110: 03cd 0080 4877 0400 89a0 0780 50b6 0100
00000120: af23 0180 0a8d 0a00 a65d 0a80 3e41 0680
00000130: 3960 0c80 0eb9 0100 bdd4 0780 cfbf 0600
00000140: 6ce8 5c3b 6c21 e52b 9084 943c 731f 1b34
00000150: c0dc e335 cbd8 4faf 4a03 73b8 ba6d 02bb
00000160: 4336 d8b7 3696 493d 0e51 fc34 c6a8 01ba
00000170: 883e 8a2c f229 59ab 812d 6db8 76e6 6dbd
00000180: 6f7c ca39 e72c b82d 70d7 35b9 54f8 b1b2
00000190: beaf 8a36 7c56 2d33 7447 3338 8159 b13a
000001a0: 0ed3 8736 b7d7 10bb 50a9 9133 6417 0eb5
000001b0: a9d5 0733 484a c9b5 dca9 1a37 5813 5bb8
000001c0: 9e67 0900 3667 0a00 4932 0380 10e4 0e80
000001d0: f4d1 0000 1261 0680 69cc 0000 40b0 0300
000001e0: fd84 0400 a76e 0680 2ff2 0500 5fe4 0000
000001f0: 385c 0000 fa33 0880 caa2 0500 48d5 0200

fc1_3.bias f4 [8]
-6.998751e-06 0.025235556 -5.1734875e-12 0.010539218 -2.33843e-40 0.010970081 -0.0023893018 -4.64759e-40
00000000: d0d6 eab6 ccba ce3c a206 b6ac afac 2c3c
00000010: dc8b 0280 dbbb 333c d595 1cbb 8f0f 0580

bn4.weight f4 [220]
-1.6864148e-07 -5.867631e-07 0.00083145325 -1.1034072e-07 -6.913725e-05 0.000103316816 0.030825885 4.676897e-07
-4.7705537e-08 -0.004619751 -2.0923451e-05 2.4964854e-06 0.0014685343 -6.9765854e-05 0.0015848663 -6.11943e-11
-7.077544e-08 -6.985402e-09 -6.861441e-07 -0.0010062737 -1.4153542e-07 -2.285945e-05 2.8296204e-08 5.3273475e-06
0.0050243293 -7.405332e-08 -0.010176554 -0.011520113 -0.00017211447 2.3961663e-14 -0.0017698416 -0.008691535
-0.03252502 -3.1858825e-08 -0.041894075 -2.2492227e-12 -4.3461387e-05 -2.3356161e-07 0.044953667 -6.29144e-08
-2.5965055e-05 2.6395506e-05 0.036804948 1.1200064e-13 -3.2775028e-05 7.571826e-13 -1.2614461e-05 0.00011170059
0.035304006 -4.8874503e-05 -0.00020603747 1.15313856e-10 -0.004537735 2.712057e-16 0.0005439562 0.0008050617
-0.001948033 4.912096e-07 0.0017117225 0.031832326 0.015535197 2.0656803e-09 -1.6428281e-13 0.03647466
1.8658342e-14 1.8712792e-15 0.03664606 -7.8896084e-10 -0.00036714517 0.00082583824 -0.00025742556 0.037217993
4.827357e-08 0.0004626757 -3.785588e-08 0.008844351 -2.4668852e-08 -3.9129063e-08 -1.04580615e-11 -3.0828509e-09
-1.9660647e-06 -3.0680847e-06 1.2281645e-08 -3.0685192e-09 1.6251695e-07 -0.00015718212 0.0003248453 -0.00083634054
9.750736e-06 0.0056864447 -0.00010148192 8.673622e-10 0.0012293765 0.00017856926 -9.112203e-06 -3.173102e-09
-0.0030318624 8.973518e-06 0.00051211915 -0.0002557239 -0.0007548231 0.004283248 0.00043381847 -0.0018914453
-7.72195e-06 3.965001e-07 1.6638368e-06 0.00013586285 0.0028117958 0.00013537725 -0.00015366761 -2.1528886e-06
-0.00012742408 -0.00014675995 4.7558734e-07 -4.2961838e-05 0.00016291859 0.0005117188 -0.011838118 2.933687e-09
0.0018773783 -2.4134833e-06 0.00034881907 -4.2540655e-11 3.532655e-07 -6.564636e-05 -1.793214e-08 0.0006606241
-0.001783035 6.03438e-05 -1.7391235e-08 -1.987625e-05 -0.00038179837 2.3747307e-07 0.017862221 1.18983905e-07
-1.2485972e-09 0.030068127 0.0007606032 -0.00034986754 4.69886e-05 0.03786211 7.4728773e-06 -0.00022932982
0.00121957 0.032359667 1.9185666e-08 1.9924828e-05 0.00028189842 -0.0023828896 1.20348655e-08 0.05093053
-4.8646505e-17 2.459711e-05 0.019074079 -1.8738364e-15 -5.5681966e-08 0.03527619 0.0016965923 8.61172e-07
8.351882e-06 -8.106539e-08 0.040053315 2.6134487e-06 -1.0792083e-11 5.2409156e-05 0.001062666 -0.0061480943
9.901408e-05 1.1876782e-10 -0.0010882624 9.3059925e-06 0.0045492672 0.00013609303 7.419169e-08 -9.499257e-13
-4.6559447e-07 0.00065618 -4.9026744e-10 -0.0004912868 -0.00042180048 0.00084974774 4.6564463e-08 9.686123e-07
0.00020432871 -1.8304108e-07 4.435254e-05 -0.014773905 0.00054293516 -1.7161134e-05 -1.5173502e-05 -0.009268631
2.564289e-06 -4.320053e-05 -0.00081790605 -4.0657353e-05 -0.0009351558 -0.00015771214 -0.00021201289 0.002534537
-4.5984702e-06 -0.0073945676 1.0502513e-05 -1.9235913e-05 -0.00017119653 -0.009072932 1.2439659e-05 -7.62669e-05
3.6244248e-05 -0.00011353301 0.0017363738 -2.8458965e-06 -0.00020384019 0.0002058919 -0.000618519 -0.0037147203
-0.00035889726 -2.1434253e-06 0.0019360286 -0.0024013717
00000000: d113 35b4 0e82 1db5 e2f5 593a 74f4 ecb3
00000010: c7fd 90b8 cbab d838 9186 fc3c c816 fb34
00000020: cbe4 4cb3 4861 97bb c584 afb7 4b89 2736
00000030: d67b c03a 424f 92b8 4abb cf3a 5491 86ae
00000040: 36fd 97b3 3f04 f0b1 772f 38b5 f1e4 83ba
00000050: f6f8 17b4 4cc2 bfb7 0310 f332 91c1 b236
00000060: 21a3 a43b 3e07 9fb3 90bb 26bc dbbe 3cbc
00000070: a079 34b9 d5d3 d728 08fa e7ba f166 0ebc
00000080: f538 05bd 26d5 08b3 1f99 2bbd 6546 1eac
00000090: 4f4a 36b8 edc8 7ab4 5621 383d 8f1b 87b3
000000a0: 88cf d9b7 eb6b dd37 c9c0 163d f933 fc29
000000b0: eb77 09b8 c220 552b b3a2 53b7 cc40 ea38
000000c0: ef9a 103d 99fe 4cb8 c30b 58b9 ee93 fd2e
000000d0: 48b1 94bb e656 9c25 4898 0e3a c70a 533a
000000e0: 2455 ffba abdb 0335 e05b e03a 9d62 023d
000000f0: 5787 7e3c d5f3 0d31 4cf7 38aa 7466 153d
00000100: 350f a828 02d7 0627 2e1a 163d 2fde 58b0
00000110: 647d c0b9 117d 583a 13f7 86b9 e571 183d
00000120: 5a55 4f33 4893 f239 fb96 22b3 e6e7 103c
00000130: 61e7 d3b2 dc0e 28b3 ecfa 37ad 16da 53b1
00000140: bcf0 03b6 4be5 4db6 3fff 5232 f6dd 52b1
00000150: 5280 2e34 41d1 24b9 0050 aa39 dd3d 5bba
00000160: 1897 2337 5b55 ba3b b1d2 d4b8 306b 6e30
00000170: 0823 a13a 523e 3b39 9de0 18b7 cd0d 5ab1
00000180: 36b2 46bb f78c 1637 bc3f 063a ae12 86b9
00000190: 52df 45ba 7d5a 8c3b 2172 e339 5fea f7ba
000001a0: 868d 01b7 8fde d434 ff50 df35 6876 0e39
000001b0: 1b46 383b 0ef4 0d39 d621 21b9 587a 10b6
000001c0: 249d 05b9 93e3 19b9 3a54 ff34 ec31 34b8
000001d0: 20d5 2a39 de24 063a aaf4 41bc f899 4931
000001e0: 5d12 f63a 54f7 21b6 b4e1 b639 8518 3bae
000001f0: 71a8 bd34 9fab 89b8 3109 9ab2 bc2d 2d3a
00000200: bab4 e9ba a919 7d38 bb63 95b2 ecbb a6b7
00000210: 1c2c c8b9 1afc 7e34 cb53 923c 1884 ff33
00000220: 1c9b abb0 6f51 f63c 3763 473a 6d6e b7b9
00000230: a015 4538 4d15 1b3d 87bf fa36 4178 70b9
00000240: fbd9 9f3a 928b 043d bacd a432 3e24 a737
00000250: c4cb 9339 412a 1cbb e6c1 4e32 889c 503d
00000260: a857 60a4 e455 ce37 3e41 9c3c 2e06 07a7
00000270: f826 6fb3 c47d 103d 3160 de3a 4a2b 6735
00000280: 0f1f 0c37 2b16 aeb3 f20e 243d b562 2f36
00000290: 39db 3dad e7d1 5b38 2749 8b3a f475 c9bb
000002a0: c8a5 cf38 2b96 022f 07a4 8eba ef20 1c37
000002b0: 0512 953b 32b4 0e39 5053 9f33 aeb0 85ab
000002c0: d1f6 f9b4 7f03 2c3a 81c3 06b0 b3c9 00ba
000002d0: 1a25 ddb9 9bc1 5e3a 2bfe 4733 4401 8235
000002e0: 1241 5639 f389 44b4 2d07 3a38 400e 72bc
000002f0: c353 0e3a 41f5 8fb7 b291 7eb7 75db 17bc
00000300: 2616 2c36 3732 35b8 bf68 56ba 8087 2ab8
00000310: 3e25 75ba 885f 25b9 c74f 5eb9 7a1a 263b
00000320: 8f4c 9ab6 214e f2bb f333 3037 cf5c a1b7
00000330: 3883 33b9 a3a6 14bc eeb3 5037 7bf1 9fb8
00000340: f704 1838 9218 eeb8 0997 e33a 21fc 3eb6
00000350: efbd 55b9 b0e4 5739 1c24 22ba aa72 73bb
00000360: 602a bcb9 c4d7 0fb6 57c2 fd3a 5560 1dbb

bn4.bias f4 [220]
1.0484378e-08 6.4279234e-08 -3.1665528e-05 -7.3669406e-07 1.4808394e-06 2.2515538e-05 -3.269155e-05 -1.268798e-06
1.9720516e-09 8.90093e-05 3.585556e-06 -1.7524587e-07 8.775085e-06 1.5669553e-05 -5.4374454e-05 2.1998943e-11
7.787865e-10 3.0098052e-10 5.690053e-09 -5.5804787e-05 1.3916452e-09 4.6666896e-06 2.1972397e-09 -9.012853e-07
1.3328128e-05 -2.4279558e-09 0.0003620545 0.0001459491 -2.6355237e-05 1.4454989e-16 -6.1308874e-06 0.00020679852
0.00019728344 -2.375027e-09 0.00020808168 6.467129e-14 7.2279463e-06 2.127377e-09 -0.0001388202 4.7899282e-11
1.9996025e-07 -3.6825688e-07 -0.00026116986 4.0074645e-15 -2.868513e-07 -1.1999857e-13 3.2253988e-06 6.465146e-06
-9.456936e-05 -4.576918e-06 2.0684716e-05 2.5716439e-12 3.077683e-05 -1.0964457e-17 2.7019487e-05 1.9880154e-05
-1.5502446e-05 6.2345764e-09 -0.000105007784 -0.000123613 -0.00032909206 2.1529531e-10 1.4866015e-15 -5.38684e-05
-8.668634e-16 3.8716973e-17 -6.09888e-05 3.4178953e-12 1.3783845e-05 4.146443e-05 9.224856e-05 -3.189883e-05
-1.6323366e-08 -2.7895225e-05 -7.2496786e-09 -9.343076e-05 8.237321e-10 6.544229e-10 1.6520587e-12 2.3541297e-10
2.8644816e-08 4.684177e-08 -1.02260325e-10 -3.1370576e-11 2.1377882e-09 2.5524823e-06 3.2752048e-06 2.6209553e-05
-1.085526e-07 -0.0002323792 3.537863e-06 1.7799486e-12 -2.8499624e-06 -6.030701e-06 3.9042203e-07 -3.051357e-10
5.8032932e-05 -1.1518839e-06 5.324949e-05 7.2234826e-07 -7.3629153e-06 -6.972385e-05 7.1894888e-06 2.0879825e-05
5.2416357e-07 2.1971706e-08 -5.9472534e-08 -2.8983004e-07 7.864013e-06 -1.8015953e-06 0.00011305344 4.499151e-08
1.7304957e-06 4.8458594e-07 3.6017611e-09 -4.781286e-06 -0.00016317557 -2.0462323e-05 0.00032534188 4.0076532e-11
-2.1436168e-05 -3.207899e-08 2.7665258e-06 5.863047e-13 -7.764428e-09 3.1566692e-06 -4.1625695e-10 -8.244638e-05
-3.0990126e-05 -5.2997046e-07 5.9207424e-11 1.2037474e-06 1.6605718e-05 -2.6785251e-08 0.00012213207 2.7267486e-08
1.15652835e-10 1.2394699e-05 -1.1101747e-05 2.4166142e-05 0.000111678266 -0.00016064935 -4.583108e-07 -1.7536198e-05
-1.9761796e-05 2.9098426e-05 -3.8619126e-09 4.6240757e-08 1.6438382e-05 -6.0908856e-06 4.002171e-10 -0.00016236941
-2.901274e-18 -1.5583721e-06 3.7139405e-05 -1.4354974e-15 -7.2958485e-08 -1.5659445e-05 -5.362364e-05 3.746613e-08
5.9100657e-08 -3.0592568e-09 0.00012951503 -1.1256691e-07 2.7323784e-13 1.2139232e-05 -1.4414547e-06 -0.00017326088
1.1668766e-05 -1.0117432e-12 -1.814658e-05 -5.56819e-06 -0.0004379015 -9.812878e-05 -1.6192534e-09 1.0594919e-13
1.1208863e-08 -1.1965983e-05 -6.413108e-11 8.0437465e-05 -3.178745e-05 4.711759e-06 -1.9599968e-08 1.6700847e-08
-4.284374e-06 -2.352893e-08 4.033127e-07 3.9534716e-05 1.9879088e-05 8.5609855e-08 2.8866054e-06 0.00014256126
2.564322e-06 2.413294e-07 -0.00029700412 1.224539e-07 -3.3321547e-05 3.1846644e-06 -1.6186385e-05 2.8661198e-06
-9.937335e-06 0.00025522945 -8.568753e-08 -1.38533105e-05 7.012387e-07 -0.00041190258 -2.4168207e-07 5.7593553e-07
1.0036483e-05 -5.541735e-07 -9.797539e-05 1.5543279e-07 -1.2215896e-06 -1.7423159e-05 -6.6683892e-06 -5.8652953e-05
-8.040497e-06 -1.1175014e-08 1.8866369e-05 -0.0001511627
00000000: c81e 3432 e209 8a33 9ad0 04b8 3bc1 45b5
00000010: 41c1 c635 c0df bc37 491e 09b8 914b aab5
00000020: b384 0731 81aa ba38 629f 7036 382b 3cb4
00000030: b438 1337 1c72 8337 2010 64b8 3781 c12d
00000040: 3a12 5630 3e77 a52f 3c82 c331 ef0f 6ab8
00000050: 2a44 bf30 8f96 9c36 40fe 1631 dbef 71b5
00000060: e09b 5f37 0dd9 26b1 22d2 bd39 ea09 1939
00000070: 7115 ddb7 99a7 2625 ecb7 cdb6 0ed8 5839
00000080: dfdd 4e39 eb35 23b1 8030 5a39 76a0 9129
00000090: 9687 f236 3631 1231 4490 11b9 cca9 522e
000000a0: a8b4 5634 d7b4 c5b4 a0ed 88b9 5662 9027
000000b0: 8b00 9ab4 3c1b 07aa ee73 5836 2eef d836
000000c0: 8a53 c6b8 6d93 99b6 1784 ad37 9ef6 342c
000000d0: 5f16 0138 2f42 4aa3 e8a7 e237 4ec4 a637
000000e0: 400b 82b7 ea37 d631 a037 dcb8 1d9e 01b9
000000f0: fd89 acb9 3eb8 6c2f ea3d d626 c1f0 61b8
00000100: 3bdb 79a6 ef8c 3224 3ace 7fb8 5483 702c
00000110: 2a41 6737 18ea 2d38 9275 c138 1ccb 05b8
00000120: 7637 8cb2 8a00 eab7 d918 f9b1 42f0 c3b8
00000130: fe6c 6230 ebe2 3330 b081 e82b 6e6b 812f
00000140: 9e0e f632 122f 4933 72df e0ae 21f8 09ae
00000150: 5ee8 1231 504b 2b36 97cb 5b36 96dc db37
00000160: 6c1d e9b3 d1aa 73b9 066c 6d36 6881 fa2b
00000170: fb41 3fb6 545b cab6 329b d134 08c0 a7af
00000180: 6368 7338 6e9a 9ab5 3458 5f38 65e7 4135
00000190: f60e f7b6 b538 92b8 3d3d f136 1527 af37
000001a0: 3fb4 0c35 4bbc bc32 be6e 7fb3 f099 9bb4
000001b0: aeef 0337 58ce f1b5 1a17 ed38 b03c 4133
000001c0: 6143 e835 7e14 0235 da82 7731 ef6e a0b6
000001d0: 1c1a 2bb9 81a6 abb7 a692 aa39 2a42 302e
000001e0: d2d1 b3b7 39c7 09b3 8da8 3936 b507 252b
000001f0: 5164 05b2 2ad7 5336 f5d6 e4af 10e7 acb8
00000200: 65fb 01b8 4b43 0eb5 d132 822e 7290 a135
00000210: 824c 8b37 6415 e6b2 9410 0039 d639 ea32
00000220: c252 fe2e d4f2 4f37 a441 3ab7 65b8 ca37
00000230: d034 ea38 fb73 28b9 c20d f6b4 b31a 93b7
00000240: 22c6 a5b7 6518 f437 beb1 84b1 409a 4633
00000250: 28e5 8937 4f60 ccb6 8d05 dc2f b541 2ab9
00000260: 8413 56a2 4229 d1b5 22c6 1b38 82e0 cea6
00000270: 5aad 9cb3 675c 83b7 f2e9 60b8 72ea 2033
00000280: dcd5 7d33 043b 52b1 6dce 0739 50bc f1b3
00000290: b9d1 992a 9ba9 4b37 0278 c1b5 5dad 35b9
000002a0: f8c4 4337 e463 8eab 7c39 98b7 63d6 bab6
000002b0: 2596 e5b9 7dca cdb8 6a8c deb0 8d93 ee29
000002c0: 1a91 4032 81c1 48b7 9706 8dae 89b0 a838
000002d0: 8453 05b8 b419 9e36 c95c a8b2 8d75 8f32
000002e0: 7ec2 8fb6 aa1c cab2 e086 d834 14d2 2538
000002f0: 04c2 a637 84d8 b733 81b7 4136 7f7c 1539
00000300: b716 2c36 0f90 8134 38b7 9bb9 df7b 0334
00000310: bdc2 0bb8 1eb8 5536 ffc7 87b7 9057 4036
00000320: 87b8 26b7 51d0 8539 3803 b8b3 846b 68b7
00000330: c23c 3c35 a1f4 d7b9 88c0 81b4 fd99 1a35
00000340: 5e62 2837 83c2 14b5 2378 cdb8 0ae5 2634
00000350: 80f5 a3b5 f327 92b7 07c1 dfb6 2102 76b8
00000360: ace5 06b7 3bfc 3fb2 3843 9e37 6e81 1eb9

bn4.running_mean f4 [220]
-2.7321124 -2.7313638 -2.7247841 -2.7178018 -2.6964817 -2.676748 -2.6515226 -2.6258504
-2.5950143 -2.5554006 -2.5151663 -2.4701083 -2.4273887 -2.3904626 -2.3468416 -2.30348
-2.267862 -2.2361875 -2.2057729 -2.1840837 -2.143515 -2.0958588 -2.0416968 -2.0136266
-1.9970862 -1.9796373 -1.9608059 -1.9489233 -1.9412024 -1.9447109 -1.9449836 -1.9477437
-1.9529455 -1.9579768 -1.9602308 -1.9691641 -1.981952 -1.995064 -2.0094028 -2.0223708
-2.0360696 -2.0523384 -2.0691886 -2.0854642 -2.1020284 -2.1179967 -2.134747 -2.1530173
-2.1690514 -2.1852136 -2.2006683 -2.216093 -2.231539 -2.2476006 -2.2649548 -2.2830393
-2.3011525 -2.3196886 -2.3380551 -2.3558664 -2.4383798 -2.515842 -2.597412 -2.6731665
-2.7529178 -2.827387 -2.9012508 -2.9683647 -3.0356097 -3.1034493 -3.237665 -3.3666248
-3.4934099 -3.609909 -3.7234242 -3.8380237 -3.946967 -4.052365 -4.15232 -4.243253
-4.331092 -4.4120035 -4.4902134 -4.571081 -4.6507564 -4.721266 -4.7898364 -4.857276
-4.924406 -4.988787 -5.1122594 -5.223487 -5.326622 -5.425246 -5.5231442 -5.620416
-5.715624 -5.8039885 -5.886202 -5.9635744 -6.1390176 -6.2945538 -6.4360948 -6.5682807
-6.690342 -6.805579 -6.9158964 -7.0199986 -7.1192074 -7.2127385 -2.7383797 -2.7374554
-2.7305474 -2.7250156 -2.7029192 -2.6850836 -2.6614916 -2.6340144 -2.5957725 -2.5586548
-2.5196967 -2.477312 -2.4383173 -2.4049864 -2.3669028 -2.3283014 -2.2899811 -2.2569554
-2.2212486 -2.193882 -2.1420102 -2.087064 -2.0445652 -2.0152133 -1.9964205 -1.9823549
-1.9735215 -1.963984 -1.9582753 -1.9566395 -1.9563059 -1.9617321 -1.9730495 -1.9808328
-1.9903777 -1.9978856 -2.0033555 -2.0116742 -2.0192432 -2.030738 -2.042335 -2.0564184
-2.0718658 -2.0865576 -2.0995111 -2.1139011 -2.1267097 -2.14008 -2.1520917 -2.1658046
-2.1813943 -2.1981757 -2.2141638 -2.2283223 -2.243684 -2.2611606 -2.2789755 -2.295842
-2.3124518 -2.3268173 -2.4139686 -2.5000527 -2.5893698 -2.6663463 -2.7413054 -2.8215842
-2.9010806 -2.977263 -3.0472639 -3.1084712 -3.237792 -3.3604884 -3.48944 -3.5996268
-3.7099247 -3.821173 -3.9263313 -4.0367265 -4.1400347 -4.2340302 -4.3223443 -4.405071
-4.4831676 -4.5573277 -4.6314793 -4.708573 -4.7827024 -4.856383 -4.926844 -4.993571
-5.1177225 -5.229672 -5.3316402 -5.4298177 -5.5266094 -5.6180296 -5.706773 -5.7911043
-5.872205 -5.9497104 -6.130361 -6.2906785 -6.435896 -6.5716825 -6.702994 -6.8260903
-6.9388103 -7.045118 -7.144821 -7.2388015
00000000: eeda 2ec0 aace 2ec0 dd62 2ec0 77f0 2dc0
00000010: 2893 2cc0 d74f 2bc0 8cb2 29c0 ef0d 28c0
00000020: b714 26c0 af8b 23c0 7cf8 20c0 4116 1ec0
00000030: 565a 1bc0 57fd 18c0 a732 16c0 376c 13c0
00000040: a724 11c0 b21d 0fc0 622b 0dc0 07c8 0bc0
00000050: 5a2f 09c0 8d22 06c0 29ab 02c0 42df 00c0
00000060: 85a0 ffbf c164 fdbf b0fb fabf 5276 f9bf
00000070: 5279 f8bf 49ec f8bf 39f5 f8bf aa4f f9bf
00000080: 1efa f9bf fc9e fabf d8e8 fabf 920d fcbf
00000090: 9ab0 fdbf 425e ffbf 0e9a 00c0 866e 01c0
000000a0: f74e 02c0 8359 03c0 966d 04c0 3f78 05c0
000000b0: a287 06c0 428d 07c0 b29f 08c0 09cb 09c0
000000c0: bdd1 0ac0 8ada 0bc0 c0d7 0cc0 78d4 0dc0
000000d0: 89d1 0ec0 b0d8 0fc0 05f5 10c0 511d 12c0
000000e0: 1546 13c0 c775 14c0 b2a2 15c0 84c6 16c0
000000f0: 6a0e 1cc0 8e03 21c0 003c 26c0 2915 2bc0
00000100: ce2f 30c0 e9f3 34c0 18ae 39c0 b0f9 3dc0
00000110: 6e47 42c0 ea9e 46c0 e735 4fc0 c876 57c0
00000120: 0794 5fc0 c008 67c0 954c 6ec0 2ea2 75c0
00000130: 1b9b 7cc0 f9ac 81c0 cedf 84c0 bbc8 87c0
00000140: 4e98 8ac0 222f 8dc0 d4af 8fc0 4c46 92c0
00000150: ffd2 94c0 9c14 97c0 5746 99c0 ce6e 9bc0
00000160: bc94 9dc0 25a4 9fc0 a197 a3c0 ce26 a7c0
00000170: b073 aac0 9d9b adc0 99bd b0c0 73da b3c0
00000180: 64e6 b6c0 46ba b9c0 c45b bcc0 9ad5 bec0
00000190: d572 c4c0 fc6c c9c0 7df4 cdc0 5b2f d2c0
000001a0: 4817 d6c0 4ec7 d9c0 064f ddc0 d4a3 e0c0
000001b0: 8cd0 e3c0 c1ce e6c0 9d41 2fc0 7832 2fc0
000001c0: 4ac1 2ec0 a866 2ec0 a1fc 2cc0 69d8 2bc0
000001d0: e155 2ac0 b193 28c0 2321 26c0 00c1 23c0
000001e0: b642 21c0 488c 1ec0 640d 1cc0 4ceb 19c0
000001f0: 567b 17c0 e402 15c0 0d8f 12c0 f571 10c0
00000200: f028 0ec0 9068 0cc0 b216 09c0 7592 05c0
00000210: 28da 02c0 41f9 00c0 b58a ffbf cebd fdbf
00000220: 5a9c fcbf d463 fbbf c4a8 fabf 2a73 fabf
00000230: 3b68 fabf 0a1a fbbf e38c fcbf ee8b fdbf
00000240: b2c4 febf b7ba ffbf fa36 00c0 45bf 00c0
00000250: 483b 01c0 9df7 01c0 9eb5 02c0 5c9c 03c0
00000260: 7399 04c0 298a 05c0 645e 06c0 284a 07c0
00000270: 031c 08c0 12f7 08c0 dfbb 09c0 8b9c 0ac0
00000280: f79b 0bc0 e9ae 0cc0 dcb4 0dc0 d59c 0ec0
00000290: 8598 0fc0 dbb6 10c0 bcda 11c0 13ef 12c0
000002a0: 36ff 13c0 93ea 14c0 767e 1ac0 dd00 20c0
000002b0: 3cb8 25c0 6ba5 2ac0 8c71 2fc0 d694 34c0
000002c0: 4eab 39c0 7a8b 3ec0 5f06 43c0 31f1 46c0
000002d0: fc37 4fc0 3e12 57c0 fc52 5fc0 4960 66c0
000002e0: 686f 6dc0 198e 74c0 0349 7bc0 dd2c 81c0
000002f0: 2a7b 84c0 2d7d 87c0 a550 8ac0 57f6 8cc0
00000300: 1c76 8fc0 a1d5 91c0 1435 94c0 a1ac 96c0
00000310: e60b 99c0 7d67 9bc0 b5a8 9dc0 55cb 9fc0
00000320: 62c4 a3c0 7959 a7c0 cc9c aac0 11c1 adc0
00000330: fcd9 b0c0 e6c6 b3c0 e29d b6c0 ba50 b9c0
00000340: 1ae9 bbc0 0764 bec0 eb2b c4c0 3d4d c9c0
00000350: dcf2 cdc0 394b d2c0 ed7e d6c0 556f dac0
00000360: bc0a dec0 9b71 e1c0 60a2 e4c0 43a4 e7c0

bn4.running_var f4 [220]
1.373122 1.3748411 1.3824309 1.3908886 1.4105204 1.4221914 1.4361533 1.4433206
1.4559898 1.4697602 1.4741374 1.4815729 1.4761796 1.4752295 1.4688756 1.4579514
1.4573004 1.4754595 1.4733763 1.4767996 1.4818437 1.4711794 1.4682527 1.4638767
1.4510123 1.4418747 1.4359391 1.4376397 1.4357237 1.4344983 1.4311365 1.4335072
1.4358963 1.4370542 1.4456899 1.4530853 1.4668096 1.4747138 1.4794812 1.4788884
1.4832159 1.4838009 1.4825976 1.493806 1.5150633 1.5296642 1.5371014 1.5538114
1.563203 1.5700033 1.5764263 1.5915636 1.6063666 1.6230091 1.640078 1.655145
1.6691998 1.6779271 1.686654 1.692892 1.722495 1.7479682 1.8122369 1.8464586
1.8805315 1.8972676 1.9290859 1.9415274 1.9643308 1.9996383 2.0711603 2.1369977
2.2175663 2.261912 2.2979445 2.3592544 2.4094543 2.4531167 2.5016384 2.5631206
2.626055 2.6856146 2.727335 2.770402 2.814168 2.8544555 2.8971066 2.9282706
2.957869 2.9824843 3.0224137 3.0668154 3.1024153 3.1295443 3.1468892 3.1431456
3.1409874 3.1403062 3.1337636 3.1337957 3.141146 3.148755 3.1504612 3.1386337
3.1254663 3.0998669 3.065592 3.0271811 2.9801717 2.9269161 1.3795981 1.3810182
1.389191 1.3928523 1.4091249 1.4244365 1.4282184 1.43975 1.4589626 1.4649136
1.4749284 1.4801755 1.4843144 1.4797506 1.4712424 1.4575154 1.4577435 1.4664588
1.4722708 1.4797082 1.493455 1.501179 1.4945815 1.4842792 1.4777422 1.4633276
1.4612607 1.471094 1.4703678 1.468409 1.4643561 1.4650865 1.467665 1.4673718
1.4670297 1.4794779 1.4870114 1.5008246 1.5118846 1.5234963 1.536597 1.5448464
1.5438573 1.546616 1.5522605 1.5638813 1.5793865 1.5965205 1.6126834 1.6327064
1.6513777 1.6658425 1.6729635 1.6746364 1.6781007 1.6835353 1.6966714 1.7082001
1.7162989 1.7272216 1.7797024 1.8215228 1.8487378 1.8869499 1.8898952 1.8936753
1.9230264 1.9485674 1.9761949 2.0263782 2.10063 2.1593297 2.2296638 2.26991
2.307483 2.3544047 2.4120722 2.466274 2.4985108 2.5464208 2.595846 2.6527765
2.7129412 2.7621534 2.8176336 2.8621998 2.8940513 2.9173589 2.9313781 2.9509654
2.989162 3.020136 3.047644 3.0663638 3.084762 3.1028926 3.1165698 3.126022
3.1348114 3.14203 3.1308951 3.1347694 3.146525 3.1350596 3.1078126 3.0641394
3.012231 2.9540358 2.8961616 2.8411093
00000000: 76c2 af3f cbfa af3f 7ff3 b03f a308 b23f
00000010: ef8b b43f 5e0a b63f dfd3 b73f bbbe b83f
00000020: e05d ba3f 1a21 bc3f 89b0 bc3f 2ea4 bd3f
00000030: 74f3 bc3f 52d4 bc3f 1e04 bc3f 279e ba3f
00000040: d288 ba3f dbdb bc3f 9897 bc3f c507 bd3f
00000050: 0ead bd3f 9b4f bc3f b4ef bb3f 5060 bb3f
00000060: c5ba b93f 5a8f b83f dacc b73f 9404 b83f
00000070: cbc5 b73f a49d b73f 7b2f b73f 2a7d b73f
00000080: 73cb b73f 64f1 b73f 5e0c b93f b3fe b93f
00000090: 6bc0 bb3f 6cc3 bc3f a45f bd3f 374c bd3f
000000a0: 05da bd3f 30ed bd3f c2c5 bd3f 0935 bf3f
000000b0: 98ed c13f 09cc c33f bdbf c43f 4be3 c63f
000000c0: 0917 c83f def5 c83f 56c8 c93f 5bb8 cb3f
000000d0: 6c9d cd3f c3be cf3f 13ee d13f cbdb d33f
000000e0: 57a8 d53f 51c6 d63f 47e4 d73f afb0 d83f
000000f0: b77a dc3f 6cbd df3f 61f7 e73f c158 ec3f
00000100: 42b5 f03f aad9 f23f 49ec f63f f883 f83f
00000110: 316f fb3f 26f4 ff3f e48d 0440 92c4 0840
00000120: 9bec 0d40 2bc3 1040 8611 1340 06fe 1640
00000130: 8034 1a40 ddff 1c40 d81a 2040 2b0a 2440
00000140: 4911 2840 1ce1 2b40 a88c 2e40 444e 3140
00000150: 541b 3440 66af 3640 326a 3940 c968 3b40
00000160: ba4d 3d40 06e1 3e40 3a6f 4140 b446 4440
00000170: f98d 4640 744a 4840 a266 4940 4c29 4940
00000180: f005 4940 c7fa 4840 958f 4840 1c90 4840
00000190: 8908 4940 3485 4940 28a1 4940 60df 4840
000001a0: a407 4840 3864 4640 a932 4440 56bd 4140
000001b0: 22bb 3e40 9852 3b40 ac96 b03f 34c5 b03f
000001c0: 03d1 b13f fc48 b23f 345e b43f ef53 b63f
000001d0: dccf b63f ba49 b83f 49bf ba3f 4a82 bb3f
000001e0: 74ca bc3f 6476 bd3f 04fe bd3f 7868 bd3f
000001f0: ac51 bc3f dd8f ba3f 5797 ba3f ecb4 bb3f
00000200: 5f73 bc3f 1467 bd3f 8929 bf3f a226 c03f
00000210: 724e bf3f dcfc bd3f a826 bd3f 524e bb3f
00000220: 970a bb3f cf4c bc3f 0335 bc3f d3f4 bb3f
00000230: 0570 bb3f f487 bb3f 72dc bb3f d7d2 bb3f
00000240: a1c7 bb3f 885f bd3f 6456 be3f 051b c03f
00000250: 6f85 c13f ed01 c33f 36af c43f 87bd c53f
00000260: 1e9d c53f 83f7 c53f 79b0 c63f 432d c83f
00000270: 5629 ca3f c95a cc3f 696c ce3f 86fc d03f
00000280: 5860 d33f 543a d53f ab23 d63f 7c5a d63f
00000290: 01cc d63f 167e d73f 872c d93f 4da6 da3f
000002a0: afaf db3f 9915 dd3f 4acd e33f a927 e93f
000002b0: 71a3 ec3f 9387 f13f 16e8 f13f f463 f23f
000002c0: bb25 f63f a86a f93f f4f3 fc3f 2eb0 0140
000002d0: b970 0640 7532 0a40 d0b2 0e40 3546 1140
000002e0: cdad 1340 91ae 1640 645f 1a40 6fd7 1d40
000002f0: 9ae7 1f40 8ff8 2240 5722 2640 17c7 2940
00000300: d4a0 2d40 1fc7 3040 1c54 3440 482e 3740
00000310: 2338 3940 02b6 3a40 b39b 3b40 9edc 3c40
00000320: 6e4e 3f40 e949 4140 990c 4340 4e3f 4440
00000330: be6c 4540 cb95 4640 e175 4740 bf10 4840
00000340: c0a0 4840 0517 4940 9660 4840 10a0 4840
00000350: aa60 4940 d1a4 4840 67e6 4640 dc1a 4440
00000360: 65c8 4040 ec0e 3d40 b65a 3940 bcd4 3540

fc2_1.weight f4 [32, 220]
-4.2439006e-18 2.906843e-19 2.2551437e-14 -5.6105105e-08 3.718875e-05 -3.416533e-08 2.589984e-26 -1.7783465e-16
6.5288573e-12 -3.1239293e-14 -2.5831418e-19 -1.1265075e-10 -6.3416583e-18 -1.0586251e-16 1.5067703e-10 -1.3884769e-16
-3.7006877e-11 -1.3125529e-15 -1.5043561e-07 2.8445036e-26 1.0582204e-11 7.426034e-12 -3.2720817e-16 1.2985806e-06
1.5432903e-16 1.9822821e-17 4.7734457e-15 2.757334e-26 2.2910966e-09 -7.4535985e-12 -2.0484727e-16 -5.1307396e-08
7.0842174e-26 -3.3555138e-05 -1.0658704e-25 1.8464607e-15 -1.4596306e-08 4.197245e-09 1.0496146e-25 -5.908998e-11
3.990977e-12 5.363999e-12 8.383113e-26 -6.0911567e-05 -9.367585e-18 2.6437672e-05 3.057862e-22 -8.242765e-15
8.5262786e-26 3.557282e-13 3.5889304e-26 -7.863869e-09 1.6923707e-21 -3.0289597e-17 -4.6249085e-08 -5.659629e-23
1.0473154e-12 3.1203408e-11 5.703303e-17 1.6503056e-26 -2.3389584e-26 -5.8911187e-08 -1.2145175e-05 2.0905985e-26
-3.3739464e-16 1.0636178e-37 1.4346022e-25 9.395644e-17 -2.8909785e-16 -1.6339582e-14 5.511903e-16 -4.2788333e-26
2.3568001e-15 -1.0274204e-17 1.72746e-16 -1.1098601e-21 1.1839832e-12 7.586368e-10 -4.091009e-18 1.6312473e-16
-6.088286e-08 -4.9665756e-09 -1.5553074e-09 -2.2334158e-27 8.054299e-21 -1.6347309e-05 4.2808734e-10 -1.1660615e-11
-1.8545222e-12 -8.646829e-15 1.3408376e-12 1.5590452e-12 -7.9079954e-10 -3.8318827e-11 -1.3834913e-15 5.6539327e-32
-4.2353314e-08 -5.668866e-13 4.961631e-11 1.2566844e-07 6.9205196e-16 1.4061084e-08 -1.5235094e-06 1.3239887e-07
-4.581458e-08 -1.8979335e-14 -1.2020091e-17 5.499353e-12 -6.615209e-08 -6.853443e-22 1.6813308e-16 1.5074647e-10
2.7357814e-09 1.7753795e-28 -6.018937e-11 9.239076e-27 -4.234135e-08 1.9720835e-13 -7.2873343e-09 3.524998e-12
-9.0556466e-07 -8.2818236e-13 -7.099757e-16 1.0284632e-14 -3.3038835e-14 -2.5865162e-16 -5.92318e-20 8.612407e-14
6.5927065e-15 1.8341202e-09 5.216634e-13 3.998487e-09 3.9031267e-10 2.8357588e-16 -4.863261e-26 -5.929376e-17
-6.5369197e-18 -5.610427e-26 1.0909939e-12 1.0247408e-09 1.1219299e-15 5.0572813e-26 8.44906e-06 1.4599252e-11
-7.019587e-13 1.051342e-25 9.125355e-13 1.7864518e-16 1.46786086e-08 9.372591e-07 2.3378751e-08 1.3182738e-25
-1.4744464e-16 -1.3637468e-06 2.558594e-26 2.7762822e-15 -2.0354066e-13 -1.4100198e-26 3.6464487e-17 -1.8156717e-08
1.5246951e-06 -2.9116096e-16 -7.277455e-26 -3.4068914e-10 6.1492335e-15 -2.4034125e-06 -6.1123042e-12 -4.2558534e-10
3.922674e-29 8.863523e-09 8.420476e-08 9.241981e-17 -9.1176986e-08 -2.1885506e-12 1.2386528e-17 2.960478e-06
3.5715137e-05 -1.5917572e-14 1.988106e-32 8.652127e-16 -6.3878034e-14 -3.829175e-07 3.1457983e-16 8.0889947e-16
-3.7527897e-11 4.0655549e-16 1.7725906e-11 4.3665525e-17 -6.644975e-18 -9.789869e-29 -9.901527e-06 5.587568e-11
-1.2463572e-05 1.4079427e-14 -4.4756985e-06 2.0668163e-10 -2.405639e-18 -1.0602797e-16 -9.04554e-10 -6.2112595e-17
7.4304294e-06 1.468352e-05 -8.683244e-19 9.211965e-19 -1.4161991e-13 -3.5977476e-13 4.889058e-07 -5.682718e-06
-1.8999237e-15 -3.9375344e-08 -3.038127e-13 8.933745e-18 6.36496e-13 1.497498e-17 -1.6219365e-06 4.169798e-20
2.1957148e-11 4.2280433e-15 2.516475e-13 1.889327e-21 1.5611143e-12 1.552454e-11 -1.19534745e-17 -4.0288766e-18
1.5824063e-12 1.519026e-09 1.3518836e-19 5.0621146e-11 -4.1257324e-17 5.406075e-12 5.6115377e-06 8.596105e-15
2.0290418e-06 -1.3659163e-09 -2.3625004e-12 5.3965177e-27 -1.0364849e-14 6.8476145e-16 5.918288e-09 -1.0480407e-10
9.874658e-07 -2.936929e-07 -1.4462455e-24 -3.2395628e-06 -1.6289494e-05 3.867774e-08 1.4927469e-12 2.4176523e-20
3.1001153e-11 -2.4933231e-14 1.0647635e-05 -1.9663457e-05 -6.772359e-20 -1.2210698e-12 -8.5134346e-20 2.5776066e-09
00000000: 8292 9ca2 f896 ab20 1320 cb28 37f8 70b3
00000010: 1efb 1b38 2dbd 12b3 f33f 0015 8607 4da5
00000020: b8b6 e52c 74b0 0ca9 567b 98a0 bcb8 f7ae
00000030: 45f7 e9a2 321a f4a4 d0ab 252f 9b14 20a5
00000040: 0ac2 22ae a828 bda6 6d87 21b4 5eda 0c15
00000050: 032a 3a2d e2a3 022d 679f bca5 e44a ae35
00000060: e4ed 3125 50d5 b623 44fb ab27 5c89 0815
00000070: 6671 1d31 0620 03ad 3e2c 6ca5 145d 5cb3
00000080: 9065 af15 8ebd 0cb8 c8f2 0396 300d 0527
00000090: 3cc3 7ab2 5c37 9031 9def 0116 b4f0 81ae
000000a0: 866b 8c2c 9cba bc2c 4b8e cf15 4c7b 7fb8
000000b0: 2bcd 2ca3 78c6 dd37 1fd6 b81b 0b7d 14a8
000000c0: b619 d315 d641 c82a 19b7 3115 a919 07b2
000000d0: 6cbe ff1c a5af 0ba4 68a3 46b3 68d7 889a
000000e0: 8465 932b ea3b 092e 5c82 8324 3870 a314
000000f0: a4a3 e794 8905 7db3 21c3 4bb7 f80a cf14
00000100: a97e c2a5 acc5 1002 5c98 3116 18a6 d824
00000110: 50a7 a6a5 832c 93a8 aade 1e26 a8e0 5395
00000120: 4ad3 2927 8e86 3da3 9f29 4725 a2b7 a79c
00000130: 7ea1 a62b 5288 5030 7dee 96a2 ec11 3c25
00000140: b5be 82b3 76a6 aab1 84c2 d5b0 0ef3 3093
00000150: 3324 181e 9421 89b7 f057 eb2f be22 4dad
00000160: 1a80 02ac 76c4 1ba8 c4b4 bc2b 866a db2b
00000170: 925f 59b0 2a87 28ae d261 c7a6 d4c8 920b
00000180: f6e7 35b3 7c90 1fab 0037 5a2e 7aef 0634
00000190: 6c78 4726 4d91 7132 627b ccb5 8629 0e34
000001a0: aac5 44b3 5ef3 aaa8 46bb 5da3 c57d c12c
000001b0: 7f0f 8eb3 f221 4f9c 20d8 4125 5cbf 252f
000001c0: 6000 3c31 5c0e 6111 9a5b 84ae aeff 3614
000001d0: cfda 35b3 7009 5e2a 1264 fab1 b80c 782c
000001e0: ee15 73b5 d41c 69ab f6a2 4ca6 7e45 3928
000001f0: 2fcb 14a9 3e1a 95a5 6ddb 8b9f 25ef c129
00000200: fc86 ed27 5e14 fc30 cfd5 122b 1063 8931
00000210: a093 d62f 6a78 a325 28d1 7095 dcb8 88a4
00000220: 762b f1a2 4ee8 8a95 338b 992b ddd6 8c30
00000230: e8af a126 a86c 7a15 70c0 0d37 986a 802d
00000240: 7495 45ab 5c26 0216 8e6d 802b c0f6 4d25
00000250: 342d 7c32 f497 7b35 6bd2 c832 c431 2316
00000260: fafd 29a5 fc09 b7b5 1064 fd14 5e0d 4827
00000270: 9a2a 65aa 40a4 8b94 ab29 2824 0bf7 9bb2
00000280: 20a4 cc35 c6d7 a7a5 5a2e b495 bc4b bbaf
00000290: ab8c dd27 504a 21b6 be0e d7ac d0f7 e9af
000002a0: 38e7 4610 3046 1832 0ed4 b433 071b d524
000002b0: 14cd c3b3 6c01 1aac ba7d 6423 a0ac 4636
000002c0: d6cc 1538 6c5f 8fa8 ec74 ce0a 6e61 7926
000002d0: 2ed7 8fa9 c893 cdb4 ca57 b525 3f26 6926
000002e0: a80c 25ae 005d ea25 31eb 9b2d 275f 4924
000002f0: 0428 f5a2 e233 f890 bc1e 26b7 6cbe 752e
00000300: a21a 51b7 e6a1 7d28 f52d 96b6 b53f 632f
00000310: 3c81 31a2 de7b f4a4 54a4 78b0 ce38 8fa4
00000320: e752 f936 3d59 7637 5e24 80a1 d2f1 8721
00000330: 2973 1faa 0289 caaa 5a3d 0335 2dae beb6
00000340: 68e7 08a7 a61d 29b3 0608 abaa 6bcc 2423
00000350: 5f28 332b ac1e 8a23 50b1 d9b5 c4e9 441f
00000360: 1a23 c12d d154 9827 3aaa 8d2a e6c0 0e1d
00000370: 12b5 db2b 288e 882d b080 5ca3 aaa3 94a2
00000380: 32b4 de2b fac5 d030 2d9a 1f20 58a2 5e2e
00000390: 0d44 3ea4 9835 be2c be4a bc36 8ada 1a28
000003a0: ac2a 0836 e8ba bbb0 063f 26ac 31c7 d513
000003b0: 6eb7 3aa8 7a5e 4526 d059 cb31 7277 e6ae
000003c0: 1189 8435 d8ac 9db4 b0cb df97 4467 59b6
000003d0: 6ca5 88b7 a01e 2633 e015 d22b 3f57 e41e
000003e0: 3258 082e 1e94 e0a8 3ea3 3237 f4f2 a4b7
000003f0: 66e8 9f9f add9 abab 8e04 c99f bc21 3131
